@import url('https://fonts.googleapis.com/css2?family=Nunito:wght@400;600;700;800;900&family=Playfair+Display:ital,wght@0,700;1,600&family=JetBrains+Mono:wght@400;600&display=swap');

/* ─── root layout ─────────────────────────────────────────────── */

.g3d-root {
  display: flex;
  height: 100vh;
  overflow: hidden;
  background: var(--pookie-bg);
  font-family: var(--pookie-font);
  position: relative;
}

/* ─── sidebar ─────────────────────────────────────────────────── */

.g3d-sidebar {
  width: 340px;
  min-width: 340px;
  height: 100vh;
  overflow-y: auto;
  overflow-x: hidden;
  display: flex;
  flex-direction: column;
  gap: 0.85rem;
  padding: 1.1rem 1rem 1.4rem;
  border-radius: 0;
  border: none;
  border-right: 1px solid var(--pookie-border2);
  background: rgba(10, 10, 28, 0.98);
  backdrop-filter: blur(32px);
  -webkit-backdrop-filter: blur(32px);
  position: relative;
  z-index: 10;
  flex-shrink: 0;
  transition: width 0.3s cubic-bezier(0.4, 0, 0.2, 1),
              min-width 0.3s cubic-bezier(0.4, 0, 0.2, 1);
  scrollbar-width: thin;
  scrollbar-color: rgba(244, 114, 182, 0.25) transparent;
}

.g3d-sidebar::-webkit-scrollbar {
  width: 4px;
}

.g3d-sidebar::-webkit-scrollbar-thumb {
  background: rgba(244, 114, 182, 0.3);
  border-radius: 99px;
}

.g3d-sidebar--closed {
  width: 48px;
  min-width: 48px;
  padding: 1rem 0.5rem;
  align-items: center;
}

/* ─── collapse button ─────────────────────────────────────────── */

.g3d-collapse-btn {
  position: absolute;
  top: 1.1rem;
  right: -14px;
  z-index: 20;
  width: 28px;
  height: 28px;
  border-radius: 50%;
  background: var(--pookie-bg);
  border: 1px solid var(--pookie-border2);
  color: var(--pookie-pink);
  display: flex;
  align-items: center;
  justify-content: center;
  cursor: pointer;
  box-shadow: 0 2px 12px rgba(244, 114, 182, 0.28);
  transition: box-shadow 0.2s, transform 0.2s, background 0.2s;
}

.g3d-collapse-btn:hover {
  box-shadow: 0 4px 20px rgba(244, 114, 182, 0.48);
  transform: scale(1.12);
  background: rgba(244, 114, 182, 0.08);
}

/* ─── header ──────────────────────────────────────────────────── */

.g3d-hd {
  display: flex;
  align-items: center;
  gap: 0.5rem;
  flex-wrap: wrap;
  padding-bottom: 0.75rem;
  border-bottom: 1px solid var(--pookie-border);
}

.g3d-title {
  font-family: var(--pookie-display);
  font-size: 1.25rem;
  font-style: italic;
  background: linear-gradient(135deg, var(--pookie-pink), var(--pookie-purple));
  -webkit-background-clip: text;
  -webkit-text-fill-color: transparent;
  background-clip: text;
  margin: 0;
  flex: 1;
  white-space: nowrap;
}

.g3d-hd-actions {
  display: flex;
  gap: 0.3rem;
  flex-wrap: wrap;
  align-items: center;
}

/* ─── shared icon-btn ─────────────────────────────────────────── */

.icon-btn {
  width: 30px;
  height: 30px;
  border-radius: 9px;
  border: 1px solid var(--pookie-border);
  background: var(--pookie-surface);
  color: var(--pookie-muted);
  display: flex;
  align-items: center;
  justify-content: center;
  cursor: pointer;
  transition: color 0.18s, background 0.18s, border-color 0.18s, box-shadow 0.18s, transform 0.15s;
  flex-shrink: 0;
}

.icon-btn:hover {
  color: var(--pookie-pink);
  border-color: var(--pookie-border2);
  background: rgba(244, 114, 182, 0.1);
  box-shadow: 0 0 12px rgba(244, 114, 182, 0.18);
}

.icon-btn:disabled {
  opacity: 0.28;
  cursor: not-allowed;
  transform: none;
}

.icon-btn--danger:hover {
  color: var(--pookie-rose);
  border-color: rgba(251, 113, 133, 0.4);
  background: rgba(251, 113, 133, 0.1);
  box-shadow: 0 0 12px rgba(251, 113, 133, 0.18);
}

.g3d-btn-active {
  background: linear-gradient(135deg, rgba(124, 58, 237, 0.35), rgba(236, 72, 153, 0.35)) !important;
  border-color: var(--pookie-pink) !important;
  color: var(--pookie-pink) !important;
  box-shadow: 0 0 14px rgba(244, 114, 182, 0.28) !important;
}

/* ─── settings/config panel ───────────────────────────────────── */

.g3d-cfg {
  display: flex;
  flex-direction: column;
  gap: 0.65rem;
  padding: 0.9rem;
  animation: g3d-fade-down 0.22s cubic-bezier(0.4, 0, 0.2, 1);
}

@keyframes g3d-fade-down {
  from { opacity: 0; transform: translateY(-8px); }
  to   { opacity: 1; transform: translateY(0); }
}

.g3d-bound-row {
  display: flex;
  align-items: center;
  gap: 0.4rem;
}

.g3d-ax-label {
  font-size: 0.72rem;
  font-weight: 900;
  color: var(--pookie-pink);
  width: 14px;
  text-align: center;
  flex-shrink: 0;
  letter-spacing: 0.05em;
}

.g3d-num-input {
  width: 58px !important;
  padding: 0.32rem 0.45rem !important;
  font-size: 0.75rem !important;
  text-align: center;
  flex-shrink: 0;
}

.g3d-arrow {
  color: var(--pookie-muted);
  font-size: 0.72rem;
  flex-shrink: 0;
}

.g3d-res-row {
  display: flex;
  align-items: center;
  gap: 0.65rem;
}

.g3d-toggles {
  display: flex;
  gap: 1rem;
  flex-wrap: wrap;
  margin-top: 0.1rem;
}

.g3d-toggle {
  display: flex;
  align-items: center;
  gap: 0.4rem;
  color: var(--pookie-muted);
  font-size: 0.78rem;
  font-weight: 700;
  cursor: pointer;
  user-select: none;
  transition: color 0.15s;
}

.g3d-toggle:hover { color: var(--pookie-text); }

.g3d-toggle input[type="checkbox"] {
  width: 16px;
  height: 16px;
  border-radius: 5px;
  border: 1.5px solid var(--pookie-border2);
  background: var(--pookie-surface);
  appearance: none;
  -webkit-appearance: none;
  cursor: pointer;
  position: relative;
  flex-shrink: 0;
  transition: background 0.15s, border-color 0.15s, box-shadow 0.15s;
}

.g3d-toggle input[type="checkbox"]:checked {
  background: linear-gradient(135deg, var(--pookie-purple2), var(--pookie-pink2));
  border-color: var(--pookie-pink);
  box-shadow: 0 0 8px rgba(244, 114, 182, 0.35);
}

.g3d-toggle input[type="checkbox"]:checked::after {
  content: '✓';
  position: absolute;
  inset: 0;
  display: flex;
  align-items: center;
  justify-content: center;
  color: #fff;
  font-size: 10px;
  font-weight: 900;
  line-height: 16px;
  text-align: center;
}

/* ─── type tabs ───────────────────────────────────────────────── */

.g3d-tabs {
  display: grid;
  grid-template-columns: repeat(3, 1fr);
  gap: 0.28rem;
  padding: 0.3rem;
  background: rgba(168, 85, 247, 0.06);
  border-radius: 14px;
  border: 1px solid var(--pookie-border);
}

.g3d-tab {
  display: flex;
  flex-direction: column;
  align-items: center;
  justify-content: center;
  gap: 0.2rem;
  padding: 0.5rem 0.35rem;
  min-height: 52px;
  border-radius: 10px;
  border: 1px solid transparent;
  background: transparent;
  color: var(--pookie-muted);
  cursor: pointer;
  font-family: var(--pookie-font);
  font-size: 0.68rem;
  font-weight: 800;
  letter-spacing: 0.03em;
  transition: all 0.18s cubic-bezier(0.4, 0, 0.2, 1);
}

.g3d-tab:hover {
  color: var(--pookie-pink);
  background: rgba(244, 114, 182, 0.08);
  border-color: var(--pookie-border);
}

.g3d-tab--active {
  color: var(--pookie-pink);
  background: linear-gradient(135deg, rgba(124, 58, 237, 0.28), rgba(236, 72, 153, 0.22));
  border-color: var(--pookie-border2);
  box-shadow: 0 2px 12px rgba(244, 114, 182, 0.18);
}

/* ─── add expression row ──────────────────────────────────────── */

.g3d-add-row {
  display: flex;
  gap: 0.5rem;
  align-items: flex-start;
}

.g3d-expr-ta {
  flex: 1;
  resize: none;
  font-family: 'JetBrains Mono', monospace;
  font-size: 0.78rem;
  line-height: 1.55;
  padding: 0.6rem 0.75rem;
}

.g3d-add-btn {
  padding: 0.6rem 0.8rem;
  border-radius: 12px;
  flex-shrink: 0;
  align-self: stretch;
  min-height: 58px;
}

/* ─── expression cards list ───────────────────────────────────── */

.g3d-list {
  display: flex;
  flex-direction: column;
  gap: 0.6rem;
}

.g3d-empty {
  text-align: center;
  color: var(--pookie-muted);
  font-size: 0.82rem;
  padding: 1.2rem 0.5rem;
  line-height: 1.7;
}

.g3d-card {
  padding: 0.75rem;
  cursor: pointer;
  display: flex;
  flex-direction: column;
  gap: 0.5rem;
  animation: g3d-slide-in 0.26s cubic-bezier(0.4, 0, 0.2, 1);
  transition: border-color 0.18s, box-shadow 0.18s, transform 0.15s;
}

@keyframes g3d-slide-in {
  from { opacity: 0; transform: translateX(-10px); }
  to   { opacity: 1; transform: translateX(0); }
}

.g3d-card:hover {
  border-color: var(--pookie-border2);
  box-shadow: var(--pookie-glow);
  transform: translateX(2px);
}

.g3d-card--sel {
  border-color: var(--pookie-pink) !important;
  box-shadow: 0 0 0 2px rgba(244, 114, 182, 0.16), var(--pookie-glow) !important;
}

.g3d-card--err {
  border-color: rgba(251, 113, 133, 0.45) !important;
  background: rgba(251, 113, 133, 0.05) !important;
}

.g3d-card-hd {
  display: flex;
  align-items: center;
  gap: 0.45rem;
}

.g3d-swatch {
  width: 22px;
  height: 22px;
  border-radius: 50%;
  border: 2px solid rgba(255, 255, 255, 0.22);
  overflow: hidden;
  cursor: pointer;
  display: flex;
  align-items: center;
  justify-content: center;
  flex-shrink: 0;
  transition: transform 0.15s, box-shadow 0.15s;
  position: relative;
}

.g3d-swatch:hover {
  transform: scale(1.2);
  box-shadow: 0 0 10px rgba(244, 114, 182, 0.4);
}

.g3d-swatch input[type="color"] {
  opacity: 0;
  position: absolute;
  inset: 0;
  width: 100%;
  height: 100%;
  cursor: pointer;
  border: none;
  padding: 0;
}

.g3d-type-tag {
  font-size: 0.6rem;
  font-weight: 800;
  padding: 0.15rem 0.5rem;
  border-radius: 50px;
  text-transform: capitalize;
  letter-spacing: 0.04em;
}

.g3d-err-dot {
  font-size: 0.7rem;
  font-weight: 900;
  color: var(--pookie-rose);
  background: rgba(251, 113, 133, 0.15);
  border: 1px solid rgba(251, 113, 133, 0.3);
  border-radius: 50%;
  width: 18px;
  height: 18px;
  display: flex;
  align-items: center;
  justify-content: center;
  flex-shrink: 0;
}

.g3d-hidden {
  opacity: 0.38;
}

.g3d-expr-edit {
  font-family: 'JetBrains Mono', monospace;
  font-size: 0.76rem;
  resize: none;
  padding: 0.42rem 0.65rem;
  line-height: 1.5;
}

.g3d-opacity-row {
  display: flex;
  align-items: center;
  gap: 0.6rem;
}

/* ─── sliders ─────────────────────────────────────────────────── */

.g3d-slider {
  flex: 1;
  height: 5px;
  border-radius: 99px;
  background: rgba(168, 85, 247, 0.18);
  outline: none;
  -webkit-appearance: none;
  appearance: none;
  cursor: pointer;
}

.g3d-slider::-webkit-slider-thumb {
  -webkit-appearance: none;
  width: 16px;
  height: 16px;
  border-radius: 50%;
  background: linear-gradient(135deg, var(--pookie-purple2), var(--pookie-pink2));
  box-shadow: 0 2px 8px rgba(244, 114, 182, 0.45);
  cursor: pointer;
  transition: transform 0.15s, box-shadow 0.15s;
}

.g3d-slider::-webkit-slider-thumb:hover {
  transform: scale(1.3);
  box-shadow: 0 0 14px rgba(244, 114, 182, 0.6);
}

.g3d-slider::-moz-range-thumb {
  width: 16px;
  height: 16px;
  border-radius: 50%;
  border: none;
  background: linear-gradient(135deg, var(--pookie-purple2), var(--pookie-pink2));
  box-shadow: 0 2px 8px rgba(244, 114, 182, 0.45);
  cursor: pointer;
}

/* ─── variable sliders ────────────────────────────────────────── */

.g3d-vars {
  display: flex;
  flex-direction: column;
  gap: 0.55rem;
  padding: 0.85rem;
}

.g3d-var {
  display: flex;
  flex-direction: column;
  gap: 0.3rem;
}

.g3d-var-hd {
  display: flex;
  align-items: center;
  justify-content: space-between;
}

.g3d-var-name {
  font-family: 'JetBrains Mono', monospace;
  font-size: 0.75rem;
  color: var(--pookie-muted);
  font-weight: 600;
}

/* ─── examples ────────────────────────────────────────────────── */

.g3d-examples {
  padding: 0.85rem;
}

.g3d-ex-list {
  display: flex;
  flex-direction: column;
  gap: 0.32rem;
  max-height: 158px;
  overflow-y: auto;
  scrollbar-width: thin;
  scrollbar-color: rgba(168, 85, 247, 0.2) transparent;
}

.g3d-ex-list::-webkit-scrollbar { width: 3px; }
.g3d-ex-list::-webkit-scrollbar-thumb {
  background: rgba(168, 85, 247, 0.3);
  border-radius: 99px;
}

.g3d-ex-btn {
  font-family: 'JetBrains Mono', monospace;
  font-size: 0.7rem;
  padding: 0.38rem 0.7rem;
  border-radius: 8px;
  text-align: left;
  white-space: nowrap;
  overflow: hidden;
  text-overflow: ellipsis;
  transition: transform 0.15s, background 0.15s, color 0.15s;
}

.g3d-ex-btn:hover {
  transform: translateX(5px);
  color: var(--pookie-pink);
}

/* ─── canvas / main area ──────────────────────────────────────── */

.g3d-canvas {
  flex: 1;
  position: relative;
  height: 100vh;
  overflow: hidden;
  background: radial-gradient(
    ellipse 65% 55% at 55% 45%,
    rgba(168, 85, 247, 0.07) 0%,
    rgba(244, 114, 182, 0.04) 40%,
    transparent 70%
  );
}

/* ─── info bar ────────────────────────────────────────────────── */

.g3d-info {
  position: absolute;
  top: 0.9rem;
  left: 0.9rem;
  z-index: 5;
  display: flex;
  gap: 0.85rem;
  padding: 0.42rem 0.9rem;
  font-size: 0.72rem;
  font-weight: 700;
  color: var(--pookie-muted);
  border-radius: 50px;
  pointer-events: none;
  backdrop-filter: blur(16px);
  -webkit-backdrop-filter: blur(16px);
  background: rgba(15, 15, 35, 0.72);
  border: 1px solid var(--pookie-border);
}

.g3d-anim-dot {
  color: var(--pookie-pink);
  animation: g3d-pulse 1.6s ease-in-out infinite;
}

@keyframes g3d-pulse {
  0%, 100% { opacity: 1; }
  50%       { opacity: 0.4; }
}

/* ─── view camera preset buttons ──────────────────────────────── */

.g3d-view-btns {
  position: absolute;
  bottom: 1rem;
  right: 1rem;
  display: flex;
  gap: 0.38rem;
  z-index: 5;
  flex-wrap: wrap;
  justify-content: flex-end;
}

.g3d-view-btn {
  font-size: 0.7rem;
  font-weight: 800;
  padding: 0.36rem 0.72rem;
  border-radius: 9px;
  letter-spacing: 0.04em;
  backdrop-filter: blur(12px);
  -webkit-backdrop-filter: blur(12px);
}

/* ─── math analysis overlay ───────────────────────────────────── */

.g3d-overlay {
  position: fixed;
  inset: 0;
  z-index: 100;
  background: rgba(0, 0, 0, 0.72);
  backdrop-filter: blur(10px);
  -webkit-backdrop-filter: blur(10px);
  display: flex;
  align-items: center;
  justify-content: center;
  animation: g3d-fade-in 0.2s ease;
}

@keyframes g3d-fade-in {
  from { opacity: 0; }
  to   { opacity: 1; }
}

.g3d-math-panel {
  width: 340px;
  max-width: calc(100vw - 2rem);
  padding: 1.2rem;
  display: flex;
  flex-direction: column;
  gap: 0.85rem;
  animation: g3d-scale-in 0.22s cubic-bezier(0.34, 1.56, 0.64, 1);
}

@keyframes g3d-scale-in {
  from { opacity: 0; transform: scale(0.92); }
  to   { opacity: 1; transform: scale(1); }
}

.g3d-math-head {
  display: flex;
  align-items: center;
  justify-content: space-between;
}

.g3d-math-title {
  font-family: var(--pookie-display);
  font-size: 1rem;
  font-style: italic;
  background: linear-gradient(135deg, var(--pookie-pink), var(--pookie-purple));
  -webkit-background-clip: text;
  -webkit-text-fill-color: transparent;
  background-clip: text;
}

.g3d-math-rows {
  display: flex;
  flex-direction: column;
  gap: 0.55rem;
}

.g3d-math-row {
  display: flex;
  align-items: center;
  justify-content: space-between;
  gap: 0.5rem;
  font-size: 0.8rem;
  color: var(--pookie-muted);
  padding: 0.45rem 0.65rem;
  border-radius: 9px;
  background: var(--pookie-surface);
  border: 1px solid var(--pookie-border);
}

.g3d-math-row code {
  font-family: 'JetBrains Mono', monospace;
  font-size: 0.78rem;
  color: var(--pookie-pink);
  font-weight: 600;
}

.g3d-badge {
  font-size: 0.68rem;
  font-weight: 800;
  padding: 0.18rem 0.55rem;
  border-radius: 50px;
  background: linear-gradient(135deg, rgba(124, 58, 237, 0.25), rgba(236, 72, 153, 0.25));
  border: 1px solid var(--pookie-border2);
  color: var(--pookie-pink);
  letter-spacing: 0.03em;
}

.g3d-math-note {
  font-size: 0.8rem;
  color: var(--pookie-muted);
  text-align: center;
  padding: 0.75rem 0;
}

.g3d-math-note--err {
  color: var(--pookie-rose);
}

/* ─── glass card utilities (local, non-global) ────────────────── */

.glass-card {
  background: var(--pookie-surface);
  backdrop-filter: blur(20px);
  -webkit-backdrop-filter: blur(20px);
  border: 1px solid var(--pookie-border);
  border-radius: var(--pookie-radius);
  box-shadow: var(--pookie-shadow);
}

.glass-card-sm {
  background: var(--pookie-surface2);
  backdrop-filter: blur(16px);
  -webkit-backdrop-filter: blur(16px);
  border: 1px solid var(--pookie-border);
  border-radius: var(--pookie-radius-sm);
  box-shadow: var(--pookie-shadow);
}

/* ─── shared btn primitives ───────────────────────────────────── */

.btn-primary {
  display: flex;
  align-items: center;
  justify-content: center;
  gap: 0.4rem;
  background: linear-gradient(135deg, var(--pookie-purple2), var(--pookie-pink2));
  color: #fff;
  border: none;
  border-radius: var(--pookie-radius-sm);
  font-family: var(--pookie-font);
  font-weight: 800;
  font-size: 0.85rem;
  cursor: pointer;
  transition: opacity 0.18s, box-shadow 0.18s, transform 0.15s;
  box-shadow: 0 4px 16px rgba(244, 114, 182, 0.32);
}

.btn-primary:hover:not(:disabled) {
  opacity: 0.9;
  box-shadow: 0 6px 24px rgba(244, 114, 182, 0.48);
  transform: translateY(-1px);
}

.btn-primary:disabled {
  opacity: 0.35;
  cursor: not-allowed;
  transform: none;
}

.btn-ghost {
  display: flex;
  align-items: center;
  justify-content: center;
  gap: 0.35rem;
  background: var(--pookie-surface);
  color: var(--pookie-muted);
  border: 1px solid var(--pookie-border);
  border-radius: var(--pookie-radius-sm);
  font-family: var(--pookie-font);
  font-weight: 700;
  font-size: 0.8rem;
  cursor: pointer;
  transition: color 0.18s, background 0.18s, border-color 0.18s, transform 0.15s;
}

.btn-ghost:hover {
  color: var(--pookie-pink);
  background: rgba(244, 114, 182, 0.08);
  border-color: var(--pookie-border2);
  transform: translateY(-1px);
}

/* ─── field-input (shared form input) ─────────────────────────── */

.field-input {
  width: 100%;
  background: rgba(15, 15, 35, 0.7);
  border: 1px solid var(--pookie-border);
  border-radius: var(--pookie-radius-sm);
  color: var(--pookie-text);
  font-family: var(--pookie-font);
  font-size: 0.82rem;
  padding: 0.55rem 0.8rem;
  outline: none;
  transition: border-color 0.18s, box-shadow 0.18s, background 0.18s;
  box-sizing: border-box;
}

.field-input:focus {
  border-color: var(--pookie-pink);
  box-shadow: 0 0 0 3px rgba(244, 114, 182, 0.14);
  background: rgba(15, 15, 35, 0.9);
}

.field-input::placeholder {
  color: var(--pookie-muted);
  opacity: 0.6;
}

.field-label {
  font-size: 0.72rem;
  font-weight: 800;
  color: var(--pookie-muted);
  text-transform: uppercase;
  letter-spacing: 0.07em;
  margin-bottom: 0.2rem;
  display: block;
}

/* ─── pookie display title ────────────────────────────────────── */

.pookie-display-title {
  font-family: var(--pookie-display);
  font-weight: 700;
}

/* ─── responsive ──────────────────────────────────────────────── */

@media (max-width: 1024px) {
  .g3d-sidebar {
    width: 300px;
    min-width: 300px;
  }
}

@media (max-width: 768px) {
  .g3d-root {
    flex-direction: column;
    height: auto;
    min-height: 100vh;
  }

  .g3d-sidebar {
    width: 100% !important;
    min-width: 100% !important;
    height: auto;
    max-height: 54vh;
    border-right: none;
    border-bottom: 1px solid var(--pookie-border2);
    overflow-y: auto;
  }

  .g3d-sidebar--closed {
    max-height: 52px;
    overflow: hidden;
    padding: 0.75rem 1rem;
  }

  .g3d-collapse-btn {
    position: static;
    align-self: flex-end;
    right: auto;
    top: auto;
    margin-bottom: 0.25rem;
  }

  .g3d-canvas {
    height: 48vh;
    min-height: 360px;
  }

  .g3d-tabs {
    grid-template-columns: repeat(3, 1fr);
  }

  .g3d-view-btns {
    bottom: 0.5rem;
    right: 0.5rem;
    gap: 0.28rem;
  }

  .g3d-view-btn {
    font-size: 0.66rem;
    padding: 0.3rem 0.52rem;
  }

  .g3d-info {
    font-size: 0.66rem;
    gap: 0.6rem;
    padding: 0.35rem 0.72rem;
  }
}

@media (max-width: 480px) {
  .g3d-sidebar {
    padding: 0.75rem 0.75rem 1rem;
    max-height: 50vh;
  }

  .g3d-canvas {
    height: 50vh;
    min-height: 300px;
  }

  .g3d-tabs {
    grid-template-columns: repeat(2, 1fr);
  }

  .g3d-tab {
    min-height: 46px;
    font-size: 0.65rem;
  }

  .g3d-expr-ta,
  .g3d-expr-edit {
    font-size: 0.72rem;
  }

  .g3d-hd-actions {
    gap: 0.22rem;
  }

  .g3d-title {
    font-size: 1.1rem;
  }
}

@media (hover: none) and (pointer: coarse) {
  .g3d-slider::-webkit-slider-thumb {
    width: 22px;
    height: 22px;
  }

  .g3d-expr-ta,
  .g3d-expr-edit {
    font-size: 0.86rem;
    min-height: 52px;
  }

  .icon-btn {
    width: 34px;
    height: 34px;
  }
}

@media (prefers-reduced-motion: reduce) {
  .g3d-card,
  .g3d-cfg,
  .g3d-math-panel,
  .g3d-overlay {
    animation: none;
  }

  .g3d-anim-dot {
    animation: none;
  }

  .g3d-collapse-btn,
  .g3d-swatch,
  .icon-btn,
  .btn-primary,
  .btn-ghost,
  .g3d-tab,
  .g3d-ex-btn {
    transition: none;
  }
}import React, {
  useState, useEffect, useCallback, useRef, useMemo, useDeferredValue,
} from 'react';
import { Helmet } from 'react-helmet-async';
import Plot from 'react-plotly.js';
import * as math from 'mathjs';
import {
  Trash2, Plus, Eye, EyeOff, Settings2, RotateCcw, Box, Play, Pause,
  RotateCw, Move, Layers, Download, Upload, Undo2, Redo2,
  ChevronLeft, ChevronRight, FlaskConical, Waves, Wind, Check, X,
} from 'lucide-react';
import './3D.css';
import { useCAS } from '../hooks/useCAS';
import CASLoader from '../components/graphing/CASLoader';
import '../components/graphing/CAS.css';

/* ─── constants ─────────────────────────────────────────────────── */
const KNOWN_SYMS = new Set([
  'x','y','z','t','u','v','e','pi','i','E','PI',
  'sin','cos','tan','asin','acos','atan','atan2',
  'sinh','cosh','tanh','asinh','acosh','atanh',
  'log','ln','log10','log2','sqrt','abs','ceil',
  'floor','round','sign','exp','pow','mod','max','min',
  'gamma','factorial',
]);

const PALETTE = [
  '#FF6B6B','#4ECDC4','#45B7D1','#96CEB4','#FFEAA7',
  '#DDA0DD','#98D8C8','#F7DC6F','#BB8FCE','#85C1E9',
  '#F8C471','#82E0AA',
];

const MAX_HISTORY = 40;

const hex2rgba = (hex, a) => {
  const r = parseInt(hex.slice(1,3),16);
  const g = parseInt(hex.slice(3,5),16);
  const b = parseInt(hex.slice(5,7),16);
  return `rgba(${r},${g},${b},${a})`;
};

/* ─── MathExpression class ──────────────────────────────────────── */
class MathExpr {
  constructor(raw, type = 'surface') {
    this.raw   = raw;
    this.type  = type;
    this.error = null;
    this._compiled = null;
    this._dX = null;
    this._dY = null;

    try {
      let src = raw;
      if (type === 'surface') src = raw.replace(/^\s*z\s*=\s*/i, '').trim();
      this._node = math.parse(src);
      this._compiled = this._node.compile();
      if (type === 'surface') {
        try { this._dX = math.derivative(this._node, 'x'); } catch {}
        try { this._dY = math.derivative(this._node, 'y'); } catch {}
      }
    } catch (e) {
      this.error = e.message;
    }
  }

  // FIX 3: Handle complex numbers and all return types robustly
  eval(scope) {
    if (!this._compiled) return null;
    try {
      const v = this._compiled.evaluate(scope);

      // Plain finite number — the common case
      if (typeof v === 'number') {
        return isFinite(v) ? v : null;
      }

      // Complex number object — extract real part for surface types,
      // return full object for complex domain coloring
      if (v && typeof v === 'object') {
        if ('re' in v && 'im' in v) {
          // For complex graph type, caller wants the full object
          if (this.type === 'complex') return v;
          // For all other types, use real part only
          const re = v.re;
          return typeof re === 'number' && isFinite(re) ? re : null;
        }
        // Some mathjs results wrap a scalar in an object with 're' only
        if ('re' in v) {
          const re = v.re;
          return typeof re === 'number' && isFinite(re) ? re : null;
        }
      }

      return null;
    } catch (err) {
      if (process.env.NODE_ENV === 'development') console.warn('[StudyBuddy] Non-blocking math error:', err);
      return null;
    }
  }

  dX(scope) {
    if (!this._dX) return null;
    try {
      const v = this._dX.compile().evaluate(scope);
      if (typeof v === 'number' && isFinite(v)) return v;
      if (v && typeof v === 'object' && 're' in v && isFinite(v.re)) return v.re;
      return null;
    } catch (err) {
      if (process.env.NODE_ENV === 'development') console.warn('[StudyBuddy] Non-blocking math error:', err);
      return null;
    }
  }

  dY(scope) {
    if (!this._dY) return null;
    try {
      const v = this._dY.compile().evaluate(scope);
      if (typeof v === 'number' && isFinite(v)) return v;
      if (v && typeof v === 'object' && 're' in v && isFinite(v.re)) return v.re;
      return null;
    } catch (err) {
      if (process.env.NODE_ENV === 'development') console.warn('[StudyBuddy] Non-blocking math error:', err);
      return null;
    }
  }

  vars() {
    if (!this._node) return [];
    const out = new Set();
    this._node.traverse(n => {
      if (n.isSymbolNode && !KNOWN_SYMS.has(n.name)) out.add(n.name);
    });
    return [...out];
  }
}

/* ─── Gaussian curvature (numerical) ───────────────────────────── */
const gaussK = (exprRaw, x, y, vars, h = 1e-4) => {
  try {
    const src = exprRaw.replace(/^\s*z\s*=\s*/i,'').trim();
    const f = (dx,dy) => {
      try {
        const v = math.evaluate(src, { x: x+dx, y: y+dy, ...vars });
        if (typeof v === 'number' && isFinite(v)) return v;
        if (v && typeof v === 'object' && 're' in v && isFinite(v.re)) return v.re;
        return 0;
      } catch { return 0; }
    };
    const f0  = f(0,0);
    const fx  = (f(h,0)-f(-h,0))/(2*h);
    const fy  = (f(0,h)-f(0,-h))/(2*h);
    const fxx = (f(h,0) - 2*f0 + f(-h,0))/(h*h);
    const fyy = (f(0,h) - 2*f0 + f(0,-h))/(h*h);
    const fxy = (f(h,h)-f(h,-h)-f(-h,h)+f(-h,-h))/(4*h*h);
    const D   = (1+fx*fx+fy*fy)**2;
    return D > 1e-12 ? (fxx*fyy - fxy*fxy)/D : 0;
  } catch { return 0; }
};

/* ─── SURFACE TYPE DEFINITIONS ──────────────────────────────────── */
const TYPES = [
  { id:'surface',    label:'Surface',   Icon:Layers,       ph:'sin(x)*cos(y)' },
  { id:'parametric', label:'Parametric',Icon:Box,          ph:'x=cos(u)*cos(v), y=cos(u)*sin(v), z=sin(u)' },
  { id:'curve',      label:'Curve',     Icon:Move,         ph:'x=cos(t), y=sin(t), z=t/5' },
  { id:'implicit',   label:'Implicit',  Icon:FlaskConical, ph:'x^2+y^2+z^2-4' },
  { id:'vector',     label:'Vector',    Icon:Wind,         ph:'P=y, Q=-x, R=0' },
  { id:'complex',    label:'Complex',   Icon:Waves,        ph:'z^2' },
];

const EXAMPLES = {
  surface:    ['sin(x)*cos(y)','x^2+y^2','cos(sqrt(x^2+y^2))','exp(-(x^2+y^2))','sin(x^2+y^2)/(x^2+y^2+0.1)','x*y'],
  parametric: ['x=cos(u)*cos(v), y=cos(u)*sin(v), z=sin(u)','x=(2+cos(u))*cos(v), y=(2+cos(u))*sin(v), z=sin(u)','x=u*cos(v), y=u*sin(v), z=u'],
  curve:      ['x=cos(t), y=sin(t), z=t/5','x=sin(t), y=cos(t), z=sin(2*t)','x=exp(-t/10)*cos(t), y=exp(-t/10)*sin(t), z=t/5'],
  implicit:   ['x^2+y^2+z^2-4','x^2+y^2-z^2-1','sin(x)+cos(y)+sin(z)','(x^2+y^2+z^2+2)^2-16*(x^2+y^2)'],
  vector:     ['P=y, Q=-x, R=0','P=x, Q=y, R=z','P=sin(y), Q=cos(x), R=0'],
  complex:    ['z^2','z^3-1','sin(z)','exp(z)','1/z'],
};

const DEFAULT_SETTINGS = {
  xMin:-5,xMax:5, yMin:-5,yMax:5, zMin:-5,zMax:5,
  resolution:40, showGrid:true, showAxes:true,
  curvature:false, adaptiveMesh:true,
};

/* ─── Component ─────────────────────────────────────────────────── */
export default function GraphingCalculator3D() {

  /* state */
  const [objects, setObjects] = useState(() => {
    try {
      const s = localStorage.getItem('sb-3d');
      if (s) { const p = JSON.parse(s); if (p.objects?.length) return p.objects; }
    } catch {}
    return [{ id:1, expression:'sin(x)*cos(y)', type:'surface', color:'#f472b6', visible:true, opacity:0.85, name:'Sine Wave' }];
  });
  const [nextId, setNextId]      = useState(2);
  const [activeTab, setTab]      = useState('surface');
  const [newExpr, setNewExpr]    = useState('');
  const [settings, setSettings]  = useState(DEFAULT_SETTINGS);
  const [vars, setVars]          = useState({});
  const [anim, setAnim]          = useState({ on:false, param:'t', speed:1 });
  const [sidebar, setSidebar]    = useState(true);
  const [showCfg, setShowCfg]    = useState(false);
  const [selId, setSelId]        = useState(null);
  const [mathPanel, setMathPanel]= useState(null);
  const [copied, setCopied]      = useState(false);
  const [history, setHistory]    = useState([]);
  const [hIdx, setHIdx]          = useState(-1);

  /* refs */
  const liveVarsRef  = useRef({});
  const { status: casStatus, progress: casProgress } = useCAS();
  const cameraRef    = useRef({ eye:{ x:1.5, y:1.5, z:1.5 } });
  const exprCache    = useRef(new Map());
  const animRef      = useRef();
  const frameRef     = useRef(0);

  /* deferred */
  const dObj = useDeferredValue(objects);
  const dSet = useDeferredValue(settings);

  /* ── history ───────────────────────────────────────────────────── */
  const pushHist = useCallback(snap => {
    setHistory(h => [...h.slice(0, hIdx+1), JSON.parse(JSON.stringify(snap))].slice(-MAX_HISTORY));
    setHIdx(i => Math.min(i+1, MAX_HISTORY-1));
  }, [hIdx]);

  const undo = useCallback(() => {
    if (hIdx <= 0) return;
    const s = history[hIdx-1];
    setObjects(s.objects); setSettings(s.settings); setVars(s.vars);
    setHIdx(i=>i-1); exprCache.current.clear();
  }, [history, hIdx]);

  const redo = useCallback(() => {
    if (hIdx >= history.length-1) return;
    const s = history[hIdx+1];
    setObjects(s.objects); setSettings(s.settings); setVars(s.vars);
    setHIdx(i=>i+1); exprCache.current.clear();
  }, [history, hIdx]);

  /* ── persist ───────────────────────────────────────────────────── */
  useEffect(() => {
    const t = setTimeout(() => {
      try { localStorage.setItem('sb-3d', JSON.stringify({ objects, settings, vars })); } catch {}
    }, 600);
    return () => clearTimeout(t);
  }, [objects, settings, vars]);

  /* ── sync liveVarsRef ──────────────────────────────────────────── */
  useEffect(() => { liveVarsRef.current = vars; }, [vars]);

  /* ── extract variable names from expressions ───────────────────── */
  useEffect(() => {
    const extra = {};
    objects.forEach(obj => {
      let e = exprCache.current.get(obj.expression+'|'+obj.type);
      if (!e) { e = new MathExpr(obj.expression, obj.type); exprCache.current.set(obj.expression+'|'+obj.type, e); }
      e.vars().forEach(n => { if (!(n in vars) && !(n in extra)) extra[n] = 0; });
    });
    if (Object.keys(extra).length) {
      setVars(v => { const nv = {...v, ...extra}; liveVarsRef.current = nv; return nv; });
    }
    // eslint-disable-next-line react-hooks/exhaustive-deps
  }, [objects]);

  /* ── animation loop ────────────────────────────────────────────── */
  useEffect(() => {
    if (!anim.on) { cancelAnimationFrame(animRef.current); return; }
    const tick = () => {
      liveVarsRef.current = { ...liveVarsRef.current, [anim.param]: (liveVarsRef.current[anim.param]||0) + 0.03*anim.speed };
      if (++frameRef.current % 2 === 0) setVars({...liveVarsRef.current});
      animRef.current = requestAnimationFrame(tick);
    };
    animRef.current = requestAnimationFrame(tick);
    return () => cancelAnimationFrame(animRef.current);
  }, [anim.on, anim.param, anim.speed]);

  /* ── keyboard shortcuts ────────────────────────────────────────── */
  useEffect(() => {
    const h = e => {
      if (e.target.tagName==='INPUT'||e.target.tagName==='TEXTAREA') return;
      if ((e.ctrlKey||e.metaKey)&&e.key==='z') { e.preventDefault(); undo(); }
      if ((e.ctrlKey||e.metaKey)&&e.key==='y') { e.preventDefault(); redo(); }
      if (e.key===' ') { e.preventDefault(); setAnim(a=>({...a,on:!a.on})); }
      if (e.key==='g') setSettings(s=>({...s,showGrid:!s.showGrid}));
      if (e.key==='c') setSettings(s=>({...s,curvature:!s.curvature}));
    };
    window.addEventListener('keydown',h);
    return ()=>window.removeEventListener('keydown',h);
  }, [undo, redo]);

  /* ── mesh generators ────────────────────────────────────────────
     Each generator takes `currentVars` as parameter (not via ref closure)
     making them pure with stable references.
  ───────────────────────────────────────────────────────────────── */

  const getExpr = useCallback((raw, type) => {
    const key = raw+'|'+type;
    if (!exprCache.current.has(key)) exprCache.current.set(key, new MathExpr(raw, type));
    return exprCache.current.get(key);
  }, []);

  // FIX 1 & 2: Handle complex numbers and validate values in genSurface
  const genSurface = useCallback((obj, currentVars) => {
    const { xMin,xMax,yMin,yMax,resolution,curvature } = dSet;
    const e = getExpr(obj.expression, 'surface');

    if (e.error) {
      console.warn('[StudyBuddy] Surface expr error:', e.error);
      return null;
    }

    // FIX 2: Debug log to help diagnose evaluation issues in dev
    if (process.env.NODE_ENV === 'development') {
      const testVal = e.eval({ x:0, y:0, ...currentVars });
      console.log('[StudyBuddy] Surface test eval at (0,0):', testVal, 'type:', typeof testVal);
    }

    const res = resolution;
    const x=[],y=[],z=[],sc=[];
    let validCount = 0;

    for (let i=0;i<res;i++) {
      const xr=[],yr=[],zr=[],cr=[];
      const xv = xMin + (i/(res-1))*(xMax-xMin);
      for (let j=0;j<res;j++) {
        const yv = yMin + (j/(res-1))*(yMax-yMin);

        // FIX 1: e.eval() now handles complex numbers internally,
        // returning the real part (or null) for surface types.
        let zv = e.eval({ x:xv, y:yv, ...currentVars });

        xr.push(xv);
        yr.push(yv);
        // FIX 1: Push null for invalid values — Plotly renders gaps, not errors
        if (typeof zv === 'number' && isFinite(zv)) {
          zr.push(zv);
          validCount++;
        } else {
          zr.push(null);
        }

        if (curvature) cr.push(gaussK(obj.expression, xv, yv, currentVars));
      }
      x.push(xr); y.push(yr); z.push(zr); if (curvature) sc.push(cr);
    }

    // FIX 4: Validate — don't return a trace with zero usable points
    if (validCount === 0) {
      console.warn('[StudyBuddy] No valid Z values for expression:', obj.expression);
      return null;
    }

    if (process.env.NODE_ENV === 'development') {
      console.log('[StudyBuddy] Surface valid points:', validCount, '/', res * res, 'for:', obj.expression);
    }

    const trace = {
      type:'surface', x,y,z, name:obj.name||obj.expression, opacity:obj.opacity, showscale:false,
      hovertemplate:`<b>%{fullData.name}</b><br>X:%{x:.3f} Y:%{y:.3f} Z:%{z:.3f}<extra></extra>`,
      // Plotly handles null values as gaps — no extra config needed
      connectgaps: false,
    };

    if (curvature && sc.length) {
      trace.surfacecolor = sc;
      trace.colorscale = [[0,'#3b82f6'],[0.5,'#10b981'],[1,'#ef4444']];
      trace.showscale = true;
      trace.colorbar = { title:'K', thickness:10, len:0.4, tickfont:{size:10,color:'#94a3b8'} };
    } else {
      trace.colorscale = [[0,hex2rgba(obj.color,0.12)],[1,obj.color]];
    }
    return trace;
  }, [dSet, getExpr]);

  const genParametric = useCallback((obj, currentVars) => {
    const { resolution } = dSet;
    const parts = {};
    obj.expression.split(',').forEach(p => {
      const m = p.trim().match(/^([xyz])\s*=\s*(.+)$/i);
      if (m) parts[m[1].toLowerCase()] = m[2].trim();
    });
    const ex = getExpr(parts.x||'u','parametric');
    const ey = getExpr(parts.y||'v','parametric');
    const ez = getExpr(parts.z||'0','parametric');
    if (ex.error||ey.error||ez.error) return null;
    const x=[],y=[],z=[];
    let validCount = 0;
    for (let i=0;i<resolution;i++) {
      const xr=[],yr=[],zr=[];
      const u = -Math.PI + (i/(resolution-1))*2*Math.PI;
      for (let j=0;j<resolution;j++) {
        const v = -Math.PI + (j/(resolution-1))*2*Math.PI;
        const sc = { u,v,...currentVars };
        const xv = ex.eval(sc), yv = ey.eval(sc), zv = ez.eval(sc);
        xr.push(xv); yr.push(yv); zr.push(zv);
        if (xv !== null && yv !== null && zv !== null) validCount++;
      }
      x.push(xr); y.push(yr); z.push(zr);
    }
    if (validCount === 0) return null;
    return {
      type:'surface', x,y,z, name:obj.name||'Parametric',
      colorscale:[[0,hex2rgba(obj.color,0.12)],[1,obj.color]], opacity:obj.opacity, showscale:false,
      connectgaps: false,
    };
  }, [dSet, getExpr]);

  const genCurve = useCallback((obj, currentVars) => {
    const parts = {};
    obj.expression.split(',').forEach(p => {
      const m = p.trim().match(/^([xyz])\s*=\s*(.+)$/i);
      if (m) parts[m[1].toLowerCase()] = m[2].trim();
    });
    const ex=getExpr(parts.x||'t','curve'), ey=getExpr(parts.y||'0','curve'), ez=getExpr(parts.z||'0','curve');
    if (ex.error||ey.error||ez.error) return null;
    const x=[],y=[],z=[];
    for (let i=0;i<800;i++) {
      const t = -10 + (i/799)*20;
      const sc = { t,...currentVars };
      const xv=ex.eval(sc), yv=ey.eval(sc), zv=ez.eval(sc);
      if (xv!==null&&yv!==null&&zv!==null) { x.push(xv);y.push(yv);z.push(zv); }
    }
    if (x.length === 0) return null;
    return { type:'scatter3d', mode:'lines', x,y,z, name:obj.name||'Curve', line:{ color:obj.color, width:4 } };
  }, [getExpr]);

  const genImplicit = useCallback((obj, currentVars) => {
    const { xMin,xMax,yMin,yMax,zMin,zMax } = dSet;
    const e = getExpr(obj.expression,'implicit');
    if (e.error) return null;
    const res=22, xs=[],ys=[],zs=[],vs=[];
    for (let i=0;i<res;i++) for (let j=0;j<res;j++) for (let k=0;k<res;k++) {
      const xv=xMin+(i/(res-1))*(xMax-xMin), yv=yMin+(j/(res-1))*(yMax-yMin), zv=zMin+(k/(res-1))*(zMax-zMin);
      const v=e.eval({x:xv,y:yv,z:zv,...currentVars});
      xs.push(xv);ys.push(yv);zs.push(zv);vs.push(v??0);
    }
    return {
      type:'isosurface', x:xs,y:ys,z:zs, value:vs,
      isomin:-0.5,isomax:0.5, surface:{show:true,count:1,fill:0.9},
      colorscale:[[0,hex2rgba(obj.color,0.3)],[1,obj.color]], showscale:false, opacity:obj.opacity,
      caps:{x:{show:false},y:{show:false},z:{show:false}}, name:obj.name||'Implicit',
    };
  }, [dSet, getExpr]);

  const genVector = useCallback((obj, currentVars) => {
    const { xMin,xMax,yMin,yMax,zMin,zMax } = dSet;
    const parts = {};
    obj.expression.split(',').forEach(p => {
      const m = p.trim().match(/^([PQR])\s*=\s*(.+)$/i);
      if (m) parts[m[1].toUpperCase()] = m[2].trim();
    });
    const fp=getExpr(parts.P||'0','vector'), fq=getExpr(parts.Q||'0','vector'), fr=getExpr(parts.R||'0','vector');
    if (fp.error||fq.error||fr.error) return null;
    const x=[],y=[],z=[],u=[],v=[],w=[];
    const res=8;
    for (let i=0;i<res;i++) for (let j=0;j<res;j++) for (let k=0;k<res;k++) {
      const xv=xMin+(i/(res-1))*(xMax-xMin), yv=yMin+(j/(res-1))*(yMax-yMin), zv=zMin+(k/(res-1))*(zMax-zMin);
      const sc={x:xv,y:yv,z:zv,...currentVars};
      const pv=fp.eval(sc),qv=fq.eval(sc),rv=fr.eval(sc);
      if (pv!==null&&qv!==null&&rv!==null) { x.push(xv);y.push(yv);z.push(zv);u.push(pv);v.push(qv);w.push(rv); }
    }
    if (x.length === 0) return null;
    return {
      type:'cone', x,y,z,u,v,w, sizemode:'absolute', sizeref:0.3, anchor:'tail',
      colorscale:[[0,obj.color],[1,obj.color]], showscale:false, opacity:obj.opacity, name:obj.name||'Vector Field',
    };
  }, [dSet, getExpr]);

  const genComplex = useCallback((obj, currentVars) => {
    const { xMin,xMax,yMin,yMax,resolution } = dSet;
    const e = getExpr(obj.expression,'complex');
    if (e.error) return null;
    const res=Math.min(resolution,48), x=[],y=[],z=[],sc=[];
    let validCount = 0;
    for (let i=0;i<res;i++) {
      const xr=[],yr=[],zr=[],cr=[];
      const xv=xMin+(i/(res-1))*(xMax-xMin);
      for (let j=0;j<res;j++) {
        const yv=yMin+(j/(res-1))*(yMax-yMin);
        const scope={x:xv,y:yv,z:math.complex(xv,yv),...currentVars};
        let mag=0,phase=0;
        try {
          const r=e.eval(scope);
          if (typeof r==='object'&&r&&'re'in r) {
            mag=Math.sqrt(r.re**2+(r.im||0)**2);
            phase=Math.atan2(r.im||0,r.re);
            validCount++;
          } else if (typeof r==='number' && isFinite(r)) {
            mag=Math.abs(r);
            phase=r>=0?0:Math.PI;
            validCount++;
          }
        } catch {}
        xr.push(xv); yr.push(yv); zr.push(Math.min(mag,10)); cr.push((phase+Math.PI)/(2*Math.PI));
      }
      x.push(xr);y.push(yr);z.push(zr);sc.push(cr);
    }
    if (validCount === 0) return null;
    return {
      type:'surface', x,y,z, surfacecolor:sc,
      colorscale:[[0,'#ef4444'],[0.17,'#f59e0b'],[0.33,'#84cc16'],[0.5,'#10b981'],[0.67,'#06b6d4'],[0.83,'#3b82f6'],[1,'#8b5cf6']],
      opacity:obj.opacity, showscale:true, colorbar:{title:'Phase',thickness:10,len:0.4},
      name:obj.name||'Complex',
    };
  }, [dSet, getExpr]);

  /* ── plotData ───────────────────────────────────────────────────
     Use liveVarsRef.current at evaluation time, trigger via varsTick.
  ─────────────────────────────────────────────────────────────── */
  const [varsTick, setVarsTick] = useState(0);

  useEffect(() => {
    setVarsTick(t => t + 1);
  }, [vars]);

  // FIX 4: Validate plot data before passing to Plotly
  const plotData = useMemo(() => {
    const currentVars = liveVarsRef.current;
    const out = [];

    dObj.filter(o=>o.visible).forEach(obj => {
      try {
        let t;
        if (obj.type==='surface')         t = genSurface(obj, currentVars);
        else if (obj.type==='parametric') t = genParametric(obj, currentVars);
        else if (obj.type==='curve')      t = genCurve(obj, currentVars);
        else if (obj.type==='implicit')   t = genImplicit(obj, currentVars);
        else if (obj.type==='vector')     t = genVector(obj, currentVars);
        else if (obj.type==='complex')    t = genComplex(obj, currentVars);

        if (!t) return; // Generator already returned null — skip

        // FIX 4: Ensure trace has data before pushing
        const hasData = (
          // Surface / parametric / complex: nested arrays
          (t.x && Array.isArray(t.x[0]) && t.x.some(row => row.some(v => v !== null && v !== undefined))) ||
          // Curve / scatter3d: flat arrays
          (t.x && Array.isArray(t.x) && !Array.isArray(t.x[0]) && t.x.length > 0) ||
          // Isosurface / implicit: value array
          (t.value && t.value.length > 0)
        );

        if (hasData) {
          out.push(t);
        } else {
          console.warn('[StudyBuddy] Trace has no renderable data:', obj.expression);
        }
      } catch (err) { console.warn('[StudyBuddy] Mesh generation error:', obj.expression, err); }
    });

    if (process.env.NODE_ENV === 'development') {
      console.log('[StudyBuddy] Generated traces:', out.length);
    }

    return out;
  }, [dObj, dSet, varsTick, genSurface, genParametric, genCurve, genImplicit, genVector, genComplex]);

  /* ── layout ─────────────────────────────────────────────────── */
  const layout = useMemo(() => ({
    paper_bgcolor:'rgba(0,0,0,0)', plot_bgcolor:'rgba(0,0,0,0)',
    font:{ color:'#f8fafc', family:'Nunito, sans-serif', size:12 },
    scene:{
      bgcolor:'rgba(15,15,35,0.55)',
      aspectmode:'cube',
      xaxis:{ range:[dSet.xMin,dSet.xMax], showgrid:dSet.showGrid, gridcolor:'rgba(244,114,182,0.15)',
        showline:dSet.showAxes, linecolor:'rgba(244,114,182,0.5)', linewidth:2,
        zerolinecolor:'rgba(244,114,182,0.4)', zerolinewidth:2, color:'#94a3b8',
        title:{ text:'X', font:{color:'#f472b6',size:13} } },
      yaxis:{ range:[dSet.yMin,dSet.yMax], showgrid:dSet.showGrid, gridcolor:'rgba(168,85,247,0.15)',
        showline:dSet.showAxes, linecolor:'rgba(168,85,247,0.5)', linewidth:2,
        zerolinecolor:'rgba(168,85,247,0.4)', zerolinewidth:2, color:'#94a3b8',
        title:{ text:'Y', font:{color:'#a855f7',size:13} } },
      zaxis:{ range:[dSet.zMin,dSet.zMax], showgrid:dSet.showGrid, gridcolor:'rgba(251,113,133,0.15)',
        showline:dSet.showAxes, linecolor:'rgba(251,113,133,0.5)', linewidth:2,
        zerolinecolor:'rgba(251,113,133,0.4)', zerolinewidth:2, color:'#94a3b8',
        title:{ text:'Z', font:{color:'#fb7185',size:13} } },
      camera: cameraRef.current,
      hoverlabel:{ bgcolor:'rgba(15,15,35,0.95)', bordercolor:'rgba(139,92,246,0.4)', font:{color:'#fff',size:12} },
    },
    margin:{ l:0,r:0,t:8,b:0 },
    showlegend:true,
    legend:{ x:0.02,y:0.98, bgcolor:'rgba(15,15,35,0.8)', bordercolor:'rgba(139,92,246,0.2)', borderwidth:1, font:{color:'#e2e8f0',size:11} },
  }), [dSet]);

  /* ── CRUD ──────────────────────────────────────────────────── */
  const addObj = useCallback(() => {
    if (!newExpr.trim()) return;

    // Validate using MathExpr parser before committing
    const test = new MathExpr(newExpr.trim(), activeTab);
    if (test.error) {
      alert(`⚠️ Invalid expression: ${test.error}`);
      return;
    }

    const obj = {
      id:nextId, expression:newExpr.trim(), type:activeTab,
      color:PALETTE[(nextId-1)%PALETTE.length], visible:true, opacity:0.85,
      name:`${activeTab} ${nextId}`,
    };
    const next=[...objects,obj];
    setObjects(next); setNextId(n=>n+1); setNewExpr('');
    pushHist({ objects:next, settings, vars });
  }, [newExpr,activeTab,nextId,objects,settings,vars,pushHist]);

  const updateObj = useCallback((id,patch) => {
    setObjects(prev=>{
      const next=prev.map(o=>o.id===id?{...o,...patch}:o);
      // Clear stale cache when expression changes
      if (patch.expression !== undefined) {
        const old = prev.find(o=>o.id===id);
        if (old) exprCache.current.delete(old.expression+'|'+old.type);
      }
      return next;
    });
  }, []);

  const deleteObj = useCallback((id) => {
    const next=objects.filter(o=>o.id!==id);
    setObjects(next); if(selId===id) setSelId(null);
    pushHist({objects:next,settings,vars});
  }, [objects,selId,settings,vars,pushHist]);

  /* ── math info panel ────────────────────────────────────────── */
  const computeMath = (obj) => {
    if (obj.type!=='surface') return null;
    const e = new MathExpr(obj.expression,'surface');
    if (e.error) return { error:e.error };
    const scope = { x:0, y:0, ...liveVarsRef.current };
    const fx=e.dX(scope), fy=e.dY(scope);
    const K=gaussK(obj.expression,0,0,liveVarsRef.current);
    const cl = K>0.01?'Elliptic (dome/bowl)':K<-0.01?'Hyperbolic (saddle)':'Parabolic';
    return { fx, fy, grad:fx!==null&&fy!==null?Math.sqrt(fx*fx+fy*fy):null, K, cl };
  };

  /* ── export / import ─────────────────────────────────────────── */
  const exportJSON = () => {
    const blob=new Blob([JSON.stringify({objects,settings,vars},null,2)],{type:'application/json'});
    const url=URL.createObjectURL(blob);
    const a=document.createElement('a'); a.href=url; a.download=`3d-graph-${Date.now()}.json`; a.click();
    URL.revokeObjectURL(url); setCopied(true); setTimeout(()=>setCopied(false),2000);
  };
  const importJSON = e => {
    const file=e.target.files?.[0]; if(!file) return;
    const r=new FileReader();
    r.onload = ev => {
      try {
        const d=JSON.parse(ev.target.result);
        if(d.objects) setObjects(d.objects);
        if(d.settings) setSettings(d.settings);
        if(d.vars) setVars(d.vars);
        exprCache.current.clear();
      } catch {}
    };
    r.readAsText(file);
  };

  /* ── camera presets ──────────────────────────────────────────── */
  const setCamera = eye => { cameraRef.current={eye}; setSettings(s=>({...s})); };

  /* ── derived ─────────────────────────────────────────────────── */
  const tabObjs = useMemo(()=>objects.filter(o=>o.type===activeTab),[objects,activeTab]);

  /* ═══════════════════════════════════════════════════════════════
     RENDER
  ════════════════════════════════════════════════════════════════ */
  return (
    <div className="g3d-root">
      <Helmet>
        <title>3D Graphing Calculator — StudyBuddy</title>
        <meta name="description" content="Interactive 3D graphing: surfaces, parametric, curves, vector fields, complex domain coloring."/>
        <meta name="robots" content="noindex"/>
      </Helmet>

      {/* ── math analysis overlay ─────────────────────────────── */}
      {mathPanel && (
        <div className="g3d-overlay" onClick={()=>setMathPanel(null)}>
          <div className="g3d-math-panel glass-card" onClick={e=>e.stopPropagation()}>
            <div className="g3d-math-head">
              <span className="g3d-math-title">∂ Analysis</span>
              <button className="icon-btn" onClick={()=>setMathPanel(null)}><X size={14}/></button>
            </div>
            {(() => {
              const info = computeMath(mathPanel.obj);
              if (!info) return <p className="g3d-math-note">Only available for z = f(x,y) surfaces.</p>;
              if (info.error) return <p className="g3d-math-note g3d-math-note--err">Error: {info.error}</p>;
              return (
                <div className="g3d-math-rows">
                  <div className="g3d-math-row"><span>∂z/∂x at (0,0)</span><code>{info.fx?.toFixed(4)??'N/A'}</code></div>
                  <div className="g3d-math-row"><span>∂z/∂y at (0,0)</span><code>{info.fy?.toFixed(4)??'N/A'}</code></div>
                  <div className="g3d-math-row"><span>|∇f| at (0,0)</span><code>{info.grad?.toFixed(4)??'N/A'}</code></div>
                  <div className="g3d-math-row"><span>Gaussian K</span><code>{info.K?.toFixed(4)??'N/A'}</code></div>
                  <div className="g3d-math-row"><span>Classification</span><span className="g3d-badge">{info.cl}</span></div>
                </div>
              );
            })()}
          </div>
        </div>
      )}

      {/* ── sidebar ───────────────────────────────────────────── */}
      <aside className={`g3d-sidebar glass-card${sidebar?'':' g3d-sidebar--closed'}`}>
        <button className="g3d-collapse-btn icon-btn" onClick={()=>setSidebar(s=>!s)} aria-label="Toggle sidebar">
          {sidebar ? <ChevronLeft size={15}/> : <ChevronRight size={15}/>}
        </button>

        {sidebar && (<>

          {/* header */}
          <div className="g3d-hd">
            <h1 className="pookie-display-title g3d-title">3D Grapher</h1>
            <div className="g3d-hd-actions">
              <button onClick={undo} disabled={hIdx<=0} className="icon-btn" title="Undo (Ctrl+Z)"><Undo2 size={13}/></button>
              <button onClick={redo} disabled={hIdx>=history.length-1} className="icon-btn" title="Redo (Ctrl+Y)"><Redo2 size={13}/></button>
              <button onClick={()=>setAnim(a=>({...a,on:!a.on}))} className={`icon-btn${anim.on?' g3d-btn-active':''}`} title="Play/Pause (Space)">
                {anim.on?<Pause size={13}/>:<Play size={13}/>}
              </button>
              <button onClick={()=>{ cameraRef.current={eye:{x:1.5,y:1.5,z:1.5}}; setSettings(s=>({...s})); }} className="icon-btn" title="Reset view"><RotateCcw size={13}/></button>
              <button onClick={()=>setShowCfg(s=>!s)} className={`icon-btn${showCfg?' g3d-btn-active':''}`} title="Settings"><Settings2 size={13}/></button>
              <button onClick={exportJSON} className="icon-btn" title="Export JSON">{copied?<Check size={13}/>:<Download size={13}/>}</button>
              <label className="icon-btn" title="Import JSON" style={{cursor:'pointer'}}>
                <Upload size={13}/>
                <input type="file" accept=".json" onChange={importJSON} style={{display:'none'}}/>
              </label>
            </div>
          </div>

          {/* settings panel */}
          {showCfg && (
            <div className="g3d-cfg glass-card-sm">
              <p className="field-label" style={{color:'var(--pookie-pink)'}}>Bounds &amp; Resolution</p>
              {[['X','xMin','xMax'],['Y','yMin','yMax'],['Z','zMin','zMax']].map(([ax,mn,mx])=>(
                <div key={ax} className="g3d-bound-row">
                  <span className="g3d-ax-label">{ax}</span>
                  <input type="number" className="field-input g3d-num-input" value={settings[mn]}
                    onChange={e=>setSettings(s=>({...s,[mn]:parseFloat(e.target.value)||s[mn]}))} step="1"/>
                  <span className="g3d-arrow">→</span>
                  <input type="number" className="field-input g3d-num-input" value={settings[mx]}
                    onChange={e=>setSettings(s=>({...s,[mx]:parseFloat(e.target.value)||s[mx]}))} step="1"/>
                </div>
              ))}
              <div className="g3d-res-row">
                <span className="field-label" style={{margin:0}}>Res: {settings.resolution}</span>
                <input type="range" min="15" max="80" value={settings.resolution}
                  onChange={e=>setSettings(s=>({...s,resolution:parseInt(e.target.value)}))} className="g3d-slider"/>
              </div>
              <div className="g3d-toggles">
                {[['showGrid','Grid'],['showAxes','Axes'],['curvature','Curvature']].map(([k,lb])=>(
                  <label key={k} className="g3d-toggle">
                    <input type="checkbox" checked={settings[k]} onChange={e=>setSettings(s=>({...s,[k]:e.target.checked}))}/>
                    <span>{lb}</span>
                  </label>
                ))}
              </div>
            </div>
          )}

          {/* CAS loader — shows only while Pyodide is downloading */}
          <CASLoader status={casStatus} progress={casProgress} />

          {/* type tabs */}
          <div className="g3d-tabs">
            {TYPES.map(({id,label,Icon})=>(
              <button key={id} className={`g3d-tab${activeTab===id?' g3d-tab--active':''}`} onClick={()=>setTab(id)}>
                <Icon size={12}/><span>{label}</span>
              </button>
            ))}
          </div>

          {/* add expression */}
          <div className="g3d-add-row">
            <textarea
              className="field-input g3d-expr-ta" rows={2} value={newExpr}
              onChange={e=>setNewExpr(e.target.value)}
              onKeyDown={e=>{ if(e.key==='Enter'&&!e.shiftKey){e.preventDefault();addObj();} }}
              placeholder={TYPES.find(t=>t.id===activeTab)?.ph}
            />
            <button onClick={addObj} className="btn-primary g3d-add-btn" disabled={!newExpr.trim()}><Plus size={16}/></button>
          </div>

          {/* expression list */}
          <div className="g3d-list">
            {tabObjs.length===0 && (
              <div className="g3d-empty">
                <p>No {activeTab} plots yet.</p>
                <p style={{fontSize:'0.75rem'}}>Type an expression above ↑</p>
              </div>
            )}
            {tabObjs.map(obj=>{
              const cached = exprCache.current.get(obj.expression+'|'+obj.type);
              const hasErr = cached?.error;
              return (
                <div
                  key={obj.id}
                  className={`g3d-card glass-card-sm${selId===obj.id?' g3d-card--sel':''}${hasErr?' g3d-card--err':''}`}
                  onClick={()=>setSelId(obj.id===selId?null:obj.id)}
                >
                  <div className="g3d-card-hd">
                    <label className="g3d-swatch" style={{background:obj.color}}>
                      <input type="color" value={obj.color}
                        onChange={e=>{e.stopPropagation();updateObj(obj.id,{color:e.target.value});}}
                        onClick={e=>e.stopPropagation()}/>
                    </label>
                    <span className="g3d-type-tag" style={{background:hex2rgba(obj.color,0.18),color:obj.color}}>{obj.type}</span>
                    {hasErr && <span className="g3d-err-dot" title={cached.error}>!</span>}
                    <div style={{flex:1}}/>
                    {obj.type==='surface' && (
                      <button onClick={e=>{e.stopPropagation();setMathPanel({obj});}} className="icon-btn" title="Math analysis" style={{width:26,height:26}}>∂</button>
                    )}
                    <button
                      onClick={e=>{e.stopPropagation();updateObj(obj.id,{visible:!obj.visible});}}
                      className={`icon-btn${obj.visible?'':' g3d-hidden'}`} title="Toggle visibility"
                    >
                      {obj.visible?<Eye size={12}/>:<EyeOff size={12}/>}
                    </button>
                    <button onClick={e=>{e.stopPropagation();deleteObj(obj.id);}}
                      className="icon-btn icon-btn--danger" title="Delete"><Trash2 size={12}/></button>
                  </div>
                  <textarea
                    className="field-input g3d-expr-edit" rows={2} value={obj.expression}
                    onChange={e=>{
                      updateObj(obj.id,{expression:e.target.value});
                      exprCache.current.delete(obj.expression+'|'+obj.type);
                    }}
                    onClick={e=>e.stopPropagation()}
                  />
                  {(obj.type==='surface'||obj.type==='parametric'||obj.type==='implicit'||obj.type==='complex') && (
                    <div className="g3d-opacity-row">
                      <span className="field-label" style={{margin:0,fontSize:'0.68rem'}}>Opacity</span>
                      <input type="range" min="0.1" max="1" step="0.05" value={obj.opacity}
                        onClick={e=>e.stopPropagation()}
                        onChange={e=>updateObj(obj.id,{opacity:parseFloat(e.target.value)})}
                        className="g3d-slider"/>
                    </div>
                  )}
                </div>
              );
            })}
          </div>

          {/* variable sliders */}
          {Object.keys(vars).length > 0 && (
            <div className="g3d-vars glass-card-sm">
              <p className="field-label" style={{color:'var(--pookie-pink)'}}>Variables</p>
              {Object.keys(vars).map(name=>(
                <div key={name} className="g3d-var">
                  <div className="g3d-var-hd">
                    <span className="g3d-var-name">{name} = {(vars[name]||0).toFixed(2)}</span>
                    <button
                      onClick={()=>setAnim(a=>({...a,param:name,on:true}))}
                      className={`icon-btn${anim.param===name&&anim.on?' g3d-btn-active':''}`}
                      style={{width:24,height:24}} title={`Animate ${name}`}
                    ><RotateCw size={10}/></button>
                  </div>
                  <input type="range" min="-10" max="10" step="0.1" value={vars[name]||0}
                    onChange={e=>{
                      const v=parseFloat(e.target.value);
                      liveVarsRef.current={...liveVarsRef.current,[name]:v};
                      setVars(p=>({...p,[name]:v}));
                    }}
                    className="g3d-slider"/>
                </div>
              ))}
              {anim.on && (
                <div className="g3d-var">
                  <div className="g3d-var-hd"><span className="g3d-var-name">Speed: {anim.speed.toFixed(1)}×</span></div>
                  <input type="range" min="0.1" max="5" step="0.1" value={anim.speed}
                    onChange={e=>setAnim(a=>({...a,speed:parseFloat(e.target.value)}))} className="g3d-slider"/>
                </div>
              )}
            </div>
          )}

          {/* examples */}
          <div className="g3d-examples glass-card-sm">
            <p className="field-label" style={{color:'var(--pookie-pink)'}}>Examples</p>
            <div className="g3d-ex-list">
              {(EXAMPLES[activeTab]||[]).map((ex,i)=>(
                <button key={i} className="btn-ghost g3d-ex-btn" onClick={()=>setNewExpr(ex)}>
                  {ex.length>34?ex.slice(0,34)+'…':ex}
                </button>
              ))}
            </div>
          </div>

        </>)}
      </aside>

      {/* ── main graph canvas ─────────────────────────────────── */}
      <main className="g3d-canvas">

        {/* info bar */}
        <div className="g3d-info glass-card-sm">
          <span>Objects: {objects.filter(o=>o.visible).length}/{objects.length}</span>
          <span>Res: {settings.resolution}²</span>
          {anim.on && <span className="g3d-anim-dot">● {anim.param}</span>}
        </div>

        {/* FIX 5: Added glScale and plotGlPixelRatio to suppress WebGL warnings */}
        <Plot
          data={plotData}
          layout={layout}
          config={{
            responsive:true,
            displayModeBar:true,
            modeBarButtonsToRemove:['resetCameraDefault3d','resetCameraLastSave3d','hoverClosest3d'],
            displaylogo:false,
            glScale: 1,
            plotGlPixelRatio: 1,
          }}
          style={{ width:'100%', height:'100%' }}
          onRelayout={ev=>{ if(ev['scene.camera']) cameraRef.current=ev['scene.camera']; }}
        />

        {/* camera presets */}
        <div className="g3d-view-btns">
          {[['Front',{x:2.5,y:0,z:0}],['Side',{x:0,y:2.5,z:0}],['Top',{x:0,y:0,z:2.5}],['ISO',{x:1.5,y:1.5,z:1.5}]].map(([lb,eye])=>(
            <button key={lb} className="btn-ghost g3d-view-btn" onClick={()=>setCamera(eye)}>{lb}</button>
          ))}
        </div>

      </main>
    </div>
  );
}





.pookie-overlay {
  position: fixed !important;
  inset: 0 !important;
  z-index: 9999 !important;
  display: flex !important;
  align-items: center !important;
  justify-content: center !important;
  padding: 1.5rem !important;
  background: rgba(0, 0, 0, 0.82) !important;
  backdrop-filter: blur(14px) !important;
  -webkit-backdrop-filter: blur(14px) !important;

}

.pookie-modal {
  position: relative !important;
  top: auto !important;
  left: auto !important;
  right: auto !important;
  bottom: auto !important;
  transform: none !important;
  margin: auto !important;
  max-height: 92vh !important;
  overflow-y: auto !important;
  width: min(520px, 94vw) !important;
  scrollbar-width: none !important;
}
.pookie-modal::-webkit-scrollbar { display: none !important; }

@media (max-width: 640px) {
  .pookie-overlay {
    padding: 1rem !important;
    align-items: flex-start !important;
    padding-top: max(76px, env(safe-area-inset-top)) !important;
    padding-bottom: max(1rem, env(safe-area-inset-bottom)) !important;
  }
  .pookie-modal {
    margin-top: 2rem !important;
    margin-bottom: 2rem !important;
  }
}

.s75-page {
  min-height: 100vh;
  background: var(--pookie-bg);
  padding: max(76px, env(safe-area-inset-top)) 0 max(5rem, env(safe-area-inset-bottom));
  color: var(--pookie-text);
  position: relative;
  overflow-x: hidden;
}

.s75-mesh {
  position: fixed;
  inset: 0;
  pointer-events: none;
  z-index: 0;
  background:
    radial-gradient(ellipse 60% 50% at 5%  5%,  rgba(244,114,182,.14) 0%, transparent 60%),
    radial-gradient(ellipse 45% 55% at 94% 90%, rgba(168,85,247,.16)  0%, transparent 58%),
    radial-gradient(ellipse 35% 40% at 50% 50%, rgba(99,102,241,.06)  0%, transparent 100%);
  animation: s75-mesh-drift 16s ease-in-out infinite alternate;
}
@keyframes s75-mesh-drift {
  0%   { opacity: .7; transform: scale(1)    rotate(0deg);   }
  50%  { opacity: 1;  transform: scale(1.04) rotate(.4deg);  }
  100% { opacity: .8; transform: scale(1.02) rotate(-.3deg); }
}

.s75-page > * { position: relative; z-index: 1; }

.s75-loading {
  min-height: 100vh;
  display: flex;
  flex-direction: column;
  align-items: center;
  justify-content: center;
  gap: 1.6rem;
  background: var(--pookie-bg);
}
.s75-loading-pulse {
  width: 72px; height: 72px;
  border-radius: 50%;
  background: conic-gradient(from 180deg, var(--pookie-pink), var(--pookie-purple), var(--pookie-pink));
  box-shadow: 0 0 40px rgba(244,114,182,.45), 0 0 80px rgba(168,85,247,.22), inset 0 0 24px rgba(0,0,0,.4);
  animation: s75-pulse-ring 1.8s ease-in-out infinite;
}
@keyframes s75-pulse-ring {
  0%, 100% { transform: scale(1)    rotate(0deg);   opacity: .75; }
  50%      { transform: scale(1.22) rotate(180deg); opacity: 1;   }
}
.s75-loading p {
  font-size: .82rem;
  font-weight: 800;
  letter-spacing: .12em;
  text-transform: uppercase;
  color: var(--pookie-muted);
  animation: s75-blink 2s ease-in-out infinite;
}
@keyframes s75-blink { 0%,100%{opacity:.5} 50%{opacity:1} }

.s75-auth {
  max-width: 460px;
  margin: 7rem auto;
  padding: 3.5rem 2.5rem;
  text-align: center;
  display: flex;
  flex-direction: column;
  align-items: center;
  gap: 1.4rem;
}
.s75-auth-anim { width: 160px; height: 160px; }

.s75-layout {
  max-width: 1200px;
  margin: 0 auto;
  padding: 0 1.25rem;
}

.s75-intro-wrap { display: flex; flex-direction: column; gap: 0; }

.s75-hero {
  display: grid;
  grid-template-columns: 1fr 1fr;
  gap: 3rem;
  align-items: center;
  padding: 4rem 1.5rem 2.5rem;
  max-width: 1100px;
  margin: 0 auto;
  width: 100%;
}
.s75-hero-text { display: flex; flex-direction: column; gap: 1.4rem; }

.s75-eyebrow {
  display: inline-flex;
  align-items: center;
  gap: .4rem;
  font-size: .66rem;
  font-weight: 900;
  letter-spacing: .18em;
  text-transform: uppercase;
  color: var(--pookie-pink);
  background: rgba(244,114,182,.08);
  border: 1px solid rgba(244,114,182,.28);
  border-radius: 50px;
  padding: .3rem 1rem;
  width: fit-content;
  position: relative;
  overflow: hidden;
  transition: border-color .22s, box-shadow .22s;
}
.s75-eyebrow::after {
  content: '';
  position: absolute;
  inset: 0;
  background: linear-gradient(90deg, transparent 0%, rgba(244,114,182,.14) 50%, transparent 100%);
  transform: translateX(-100%);
  animation: s75-shimmer-pill 3.5s ease infinite;
}
@keyframes s75-shimmer-pill {
  0%   { transform: translateX(-100%); }
  60%  { transform: translateX(100%);  }
  100% { transform: translateX(100%);  }
}
.s75-eyebrow:hover { border-color: rgba(244,114,182,.55); box-shadow: 0 0 18px rgba(244,114,182,.2); }

.s75-hero-title {
  font-family: var(--pookie-display);
  font-size: clamp(2.4rem, 5.5vw, 3.8rem);
  font-weight: 900;
  line-height: 1.08;
  margin: 0;
}

.s75-accent-word {
  position: relative;
  display: inline-block;
  background: linear-gradient(135deg, var(--pookie-pink), var(--pookie-purple), var(--pookie-pink));
  background-size: 200% 200%;
  -webkit-background-clip: text;
  -webkit-text-fill-color: transparent;
  background-clip: text;
  animation: s75-gradient-shift 4s ease infinite;
}
.s75-accent-word::after {
  content: '';
  position: absolute;
  bottom: -4px; left: 0; right: 0;
  height: 2px;
  background: linear-gradient(90deg, var(--pookie-pink), var(--pookie-purple));
  border-radius: 2px;
  opacity: .55;
  animation: s75-underline-pulse 3s ease-in-out infinite;
}
@keyframes s75-gradient-shift {
  0%,100% { background-position: 0% 50%;   }
  50%     { background-position: 100% 50%; }
}
@keyframes s75-underline-pulse {
  0%,100% { opacity:.35; transform:scaleX(.85); }
  50%     { opacity:.75; transform:scaleX(1);   }
}

.s75-hero-sub {
  font-size: 1.02rem;
  color: var(--pookie-muted);
  font-weight: 600;
  line-height: 1.8;
  margin: 0;
  max-width: 440px;
}
.s75-hero-actions { display: flex; gap: .8rem; flex-wrap: wrap; align-items: center; }

.s75-hero-anim-wrap {
  position: relative;
  display: flex;
  align-items: center;
  justify-content: center;
}
.s75-hero-anim {
  width: clamp(200px, 32vw, 320px);
  height: clamp(200px, 32vw, 320px);
  filter: drop-shadow(0 0 70px rgba(244,114,182,.3));
  position: relative;
  z-index: 1;
}

.s75-hero-ring {
  position: absolute;
  width: clamp(260px, 42vw, 400px);
  height: clamp(260px, 42vw, 400px);
  border-radius: 50%;
  border: 1.5px solid rgba(244,114,182,.18);
  top: 50%; left: 50%;
  transform: translate(-50%, -50%);
  animation: s75-orbit 18s linear infinite;
}
.s75-hero-ring::before {
  content: '';
  position: absolute;
  width: 12px; height: 12px;
  border-radius: 50%;
  background: var(--pookie-pink);
  top: -6px; left: 50%;
  box-shadow: 0 0 16px rgba(244,114,182,.85), 0 0 30px rgba(244,114,182,.4);
}
.s75-hero-ring::after {
  content: '';
  position: absolute;
  width: 7px; height: 7px;
  border-radius: 50%;
  background: var(--pookie-purple);
  bottom: -3px; right: 20%;
  box-shadow: 0 0 10px rgba(168,85,247,.85);
}
@keyframes s75-orbit { to { transform: translate(-50%,-50%) rotate(360deg); } }

.s75-section-label {
  font-size: .67rem;
  font-weight: 900;
  text-transform: uppercase;
  letter-spacing: .16em;
  color: var(--pookie-muted);
  margin-bottom: 1.25rem;
  display: flex;
  align-items: center;
  gap: .55rem;
}
.s75-section-label::after {
  content: '';
  flex: 1;
  height: 1px;
  background: linear-gradient(90deg, var(--pookie-border), transparent);
}

.s75-duration-section {
  padding: 0 1.5rem 2.5rem;
  max-width: 1100px;
  margin: 0 auto;
  width: 100%;
}

.s75-duration-scroll {
  display: flex;
  gap: .8rem;
  overflow-x: auto;
  padding-bottom: .75rem;
  scrollbar-width: none;
  -ms-overflow-style: none;
  scroll-snap-type: x mandatory;
  -webkit-overflow-scrolling: touch;
}
.s75-duration-scroll::-webkit-scrollbar { display: none; }

.s75-dur-card {
  flex-shrink: 0;
  scroll-snap-align: start;
  min-width: 148px;
  background: var(--pookie-surface);
  border: 1.5px solid var(--pookie-border);
  border-radius: 20px;
  padding: 1.2rem 1.1rem;
  cursor: pointer;
  text-align: left;
  position: relative;
  overflow: hidden;
  display: flex;
  flex-direction: column;
  gap: .45rem;
  transition: border-color .25s, box-shadow .25s, transform .2s, background .2s;
  -webkit-tap-highlight-color: transparent;
}
.s75-dur-card::before {
  content: '';
  position: absolute;
  top: 0; left: 0; right: 0;
  height: 3px;
  background: var(--dur-grad, linear-gradient(90deg, var(--pookie-pink), var(--pookie-purple)));
  opacity: 0;
  transition: opacity .25s;
  border-radius: 3px 3px 0 0;
}
.s75-dur-card::after {
  content: '';
  position: absolute;
  inset: 0;
  background: radial-gradient(ellipse 70% 60% at 50% 0%, var(--dur-glow, rgba(244,114,182,.12)) 0%, transparent 65%);
  opacity: 0;
  transition: opacity .3s;
  pointer-events: none;
}
.s75-dur-card:hover,
.s75-dur-card-active {
  border-color: var(--dur-color, var(--pookie-pink));
  box-shadow: 0 8px 28px var(--dur-glow, rgba(244,114,182,.22));
  transform: translateY(-5px) scale(1.01);
  background: var(--pookie-surface2);
}
.s75-dur-card:hover::before,
.s75-dur-card-active::before { opacity: 1; }
.s75-dur-card:hover::after,
.s75-dur-card-active::after  { opacity: 1; }
.s75-dur-card:active          { transform: translateY(-2px) scale(.99); }

.s75-dur-emoji  { font-size: 1.5rem; line-height: 1; margin-bottom: .05rem; }
.s75-dur-days {
  font-family: var(--pookie-display);
  font-size: 1.75rem;
  font-weight: 900;
  line-height: 1;
  color: var(--dur-color, var(--pookie-pink));
}
.s75-dur-label { font-size: .74rem; font-weight: 800; color: var(--pookie-text); }
.s75-dur-sub   { font-size: .66rem; font-weight: 600; color: var(--pookie-muted); line-height: 1.45; }

.s75-dur-badge {
  position: absolute;
  top: .65rem; right: .65rem;
  font-size: .52rem;
  font-weight: 900;
  letter-spacing: .1em;
  text-transform: uppercase;
  padding: .15rem .5rem;
  border-radius: 50px;
  border: 1px solid;
}

.s75-dur-custom-input { display: flex; flex-direction: column; gap: .35rem; padding: .5rem .75rem; }
.s75-dur-custom-input input {
  background: none;
  border: none;
  outline: none;
  color: var(--dur-color, var(--pookie-pink));
  font-family: var(--pookie-display);
  font-size: 1.75rem;
  font-weight: 900;
  width: 80px;
  padding: 0;
}
.s75-dur-custom-input input::placeholder { color: rgba(244,114,182,.35); }
.s75-dur-custom-input input::-webkit-inner-spin-button,
.s75-dur-custom-input input::-webkit-outer-spin-button { -webkit-appearance: none; margin: 0; }
.s75-dur-custom-input input[type=number] { -moz-appearance: textfield; appearance: textfield; }

.s75-modes-section {
  padding: 0 1.5rem 3.5rem;
  max-width: 1100px;
  margin: 0 auto;
  width: 100%;
}

.s75-selected-summary {
  display: flex;
  align-items: center;
  gap: .8rem;
  padding: .9rem 1.3rem;
  background: rgba(244,114,182,.05);
  border: 1px solid rgba(244,114,182,.18);
  border-radius: 16px;
  margin-bottom: 1.4rem;
  flex-wrap: wrap;
  backdrop-filter: blur(12px);
}
.s75-sel-pill { display: inline-flex; align-items: center; gap: .3rem; font-size: .73rem; font-weight: 900; }
.s75-sel-divider { width: 1px; height: 16px; background: var(--pookie-border); }
.s75-sel-change {
  margin-left: auto;
  background: none;
  border: none;
  font-family: var(--pookie-font);
  font-size: .7rem;
  font-weight: 800;
  color: var(--pookie-muted);
  cursor: pointer;
  padding: 0;
  transition: color .15s;
}
.s75-sel-change:hover { color: var(--pookie-pink); }

.s75-mode-cards { display: grid; grid-template-columns: repeat(3, 1fr); gap: 1.1rem; }

.s75-mode-card {
  background: var(--pookie-surface);
  border: 1.5px solid var(--pookie-border);
  border-radius: 22px;
  padding: 1.6rem 1.35rem 1.35rem;
  cursor: pointer;
  text-align: left;
  position: relative;
  overflow: hidden;
  display: flex;
  flex-direction: column;
  gap: .8rem;
  font-family: var(--pookie-font);
  transition: border-color .25s, box-shadow .25s, transform .2s, background .2s;
  -webkit-tap-highlight-color: transparent;
}
.s75-mode-card::before {
  content: '';
  position: absolute;
  top: 0; left: 0; right: 0;
  height: 3px;
  background: var(--card-grad, linear-gradient(90deg, var(--pookie-pink), var(--pookie-purple)));
  opacity: 0;
  transition: opacity .25s;
  border-radius: 3px 3px 0 0;
}
.s75-mode-card::after {
  content: '';
  position: absolute;
  inset: 0;
  background: radial-gradient(ellipse 65% 55% at 50% 0%, var(--card-glow, rgba(244,114,182,.1)) 0%, transparent 65%);
  opacity: 0;
  transition: opacity .3s;
  pointer-events: none;
}
.s75-mode-card:hover,
.s75-mode-card.s75-card-active {
  border-color: var(--card-color, var(--pookie-pink));
  box-shadow: 0 12px 40px var(--card-glow, rgba(244,114,182,.2));
  transform: translateY(-5px) scale(1.01);
  background: var(--pookie-surface2);
}
.s75-mode-card:hover::before,
.s75-mode-card.s75-card-active::before { opacity: 1; }
.s75-mode-card:hover::after,
.s75-mode-card.s75-card-active::after  { opacity: 1; }
.s75-mode-card:active { transform: translateY(-2px) scale(.99); }

.s75-card-emoji  { font-size: 2rem; line-height: 1; }
.s75-card-title  { font-size: .96rem; font-weight: 900; color: var(--pookie-text); margin: 0; line-height: 1.2; }
.s75-card-sub    { font-size: .7rem; color: var(--pookie-muted); font-weight: 700; margin: -.45rem 0 0; letter-spacing: .06em; text-transform: uppercase; }
.s75-card-desc   { font-size: .8rem; color: var(--pookie-muted); font-weight: 600; line-height: 1.7; margin: 0; flex: 1; }
.s75-card-tasks  { display: flex; flex-wrap: wrap; gap: .3rem; }

.s75-task-chip {
  display: inline-flex;
  align-items: center;
  gap: .25rem;
  font-size: .62rem;
  font-weight: 800;
  padding: .2rem .58rem;
  border-radius: 50px;
  border: 1px solid;
  white-space: nowrap;
  transition: transform .14s;
}
.s75-task-chip:hover { transform: translateY(-1px); }

.s75-card-active-badge {
  position: absolute;
  top: .8rem; right: .8rem;
  font-size: .58rem;
  font-weight: 900;
  letter-spacing: .1em;
  text-transform: uppercase;
  padding: .2rem .58rem;
  border-radius: 50px;
  background: rgba(244,114,182,.12);
  color: var(--pookie-pink);
  border: 1px solid rgba(244,114,182,.3);
}

.s75-how {
  padding: 0 1.5rem 5rem;
  max-width: 1100px;
  margin: 0 auto;
  width: 100%;
}

.s75-steps {
  display: grid;
  grid-template-columns: repeat(3, 1fr);
  gap: 1.1rem;
  position: relative;
  margin-top: 1.4rem;
}
.s75-steps::before {
  content: '';
  position: absolute;
  top: 36px;
  left: calc(100% / 6);
  right: calc(100% / 6);
  height: 1px;
  background: linear-gradient(90deg, transparent, var(--pookie-border), var(--pookie-border), transparent);
  z-index: 0;
}

.s75-step {
  display: flex;
  flex-direction: column;
  align-items: center;
  gap: .75rem;
  text-align: center;
  padding: 1.75rem 1.1rem;
  position: relative;
  z-index: 1;
  border-radius: 20px;
  transition: transform .22s, box-shadow .22s;
}
.s75-step:hover { transform: translateY(-6px); box-shadow: 0 18px 44px rgba(244,114,182,.14); }

.s75-step-num {
  width: 46px; height: 46px;
  border-radius: 50%;
  background: linear-gradient(135deg, var(--pookie-purple2), var(--pookie-pink2));
  display: flex; align-items: center; justify-content: center;
  font-size: .88rem; font-weight: 900; color: #fff;
  box-shadow: 0 4px 22px rgba(244,114,182,.42);
  flex-shrink: 0;
}
.s75-step-anim  { width: 78px; height: 78px; }
.s75-step-title { font-size: .9rem; font-weight: 900; color: var(--pookie-text); margin: 0; }
.s75-step-desc  { font-size: .75rem; color: var(--pookie-muted); font-weight: 600; margin: 0; line-height: 1.65; }

.s75-app {
  display: grid;
  grid-template-columns: 300px 1fr;
  gap: 1.5rem;
  max-width: 1100px;
  margin: 0 auto;
  padding: 1.5rem 1.25rem 3rem;
  align-items: start;
}

.s75-sidebar {
  display: flex;
  flex-direction: column;
  gap: 1.1rem;
  position: sticky;
  top: 84px;
}

.s75-identity {
  padding: 1.6rem 1.35rem;
  display: flex;
  flex-direction: column;
  gap: 1.1rem;
  position: relative;
  overflow: hidden;
}
.s75-identity::before {
  content: '';
  position: absolute;
  top: 0; left: 0; right: 0;
  height: 3px;
  background: var(--card-grad, linear-gradient(90deg, var(--pookie-pink), var(--pookie-purple)));
  background-size: 200% 100%;
  animation: s75-border-shift 3s ease infinite;
  border-radius: 3px 3px 0 0;
}
@keyframes s75-border-shift {
  0%   { background-position: 0% 50%;   }
  50%  { background-position: 100% 50%; }
  100% { background-position: 0% 50%;   }
}
.s75-identity::after {
  content: '';
  position: absolute;
  top: 3px; left: -60%; right: -60%;
  height: 80px;
  background: linear-gradient(90deg, transparent, rgba(244,114,182,.05), transparent);
  animation: s75-card-sweep 6s ease infinite;
  pointer-events: none;
}
@keyframes s75-card-sweep {
  0%   { transform: translateX(-50%); }
  100% { transform: translateX(150%); }
}

.s75-mode-pill {
  display: inline-flex;
  align-items: center;
  gap: .35rem;
  font-size: .64rem;
  font-weight: 900;
  letter-spacing: .1em;
  text-transform: uppercase;
  padding: .24rem .75rem;
  border-radius: 50px;
  width: fit-content;
  color: #fff;
}

.s75-dur-pill {
  display: inline-flex;
  align-items: center;
  gap: .3rem;
  font-size: .63rem;
  font-weight: 900;
  padding: .2rem .65rem;
  border-radius: 50px;
  width: fit-content;
  border: 1px solid;
  margin-top: -.3rem;
}

.s75-day-display { display: flex; flex-direction: column; gap: .25rem; }
.s75-day-big {
  font-family: var(--pookie-display);
  font-size: 3.2rem;
  font-weight: 900;
  line-height: 1;
  color: var(--pookie-text);
}
.s75-day-big span { font-size: 1.1rem; color: var(--pookie-muted); font-weight: 700; }
.s75-day-label { font-size: .68rem; font-weight: 700; color: var(--pookie-muted); letter-spacing: .06em; }

.s75-arc-wrap { display: flex; align-items: center; gap: 1.1rem; }
.s75-arc-ring { flex-shrink: 0; }
.s75-arc-bg   { fill: none; stroke: var(--pookie-surface2); }
.s75-arc-text { display: flex; flex-direction: column; gap: .18rem; }
.s75-arc-pct  { font-family: var(--pookie-display); font-size: 1.1rem; font-weight: 900; color: var(--pookie-text); line-height: 1; }
.s75-arc-sub  { font-size: .66rem; font-weight: 700; color: var(--pookie-muted); line-height: 1.45; }

.s75-streak-row { display: grid; grid-template-columns: 1fr 1fr; gap: .65rem; }
.s75-streak-tile {
  background: var(--pookie-surface2);
  border: 1px solid var(--pookie-border);
  border-radius: 14px;
  padding: .75rem .9rem;
  display: flex; flex-direction: column; gap: .18rem;
  transition: transform .2s, box-shadow .2s;
  cursor: default;
}
.s75-streak-tile:hover { transform: translateY(-3px); box-shadow: 0 6px 20px rgba(244,114,182,.12); }
.s75-tile-val { font-family: var(--pookie-display); font-size: 1.4rem; font-weight: 900; line-height: 1; }
.s75-tile-lbl { font-size: .6rem; font-weight: 800; color: var(--pookie-muted); text-transform: uppercase; letter-spacing: .08em; }

.s75-quote-strip {
  border-left: 2px solid var(--acc, var(--pookie-pink));
  padding: .65rem .9rem;
  margin: .15rem 0;
  position: relative;
  overflow: hidden;
}
.s75-quote-strip::before {
  content: '"';
  position: absolute;
  top: -.3rem; left: .6rem;
  font-size: 3.5rem;
  font-family: var(--pookie-display);
  color: var(--acc, var(--pookie-pink));
  opacity: .08;
  line-height: 1;
  pointer-events: none;
}
.s75-quote-text  { font-size: .74rem; font-style: italic; color: var(--pookie-muted); font-weight: 600; line-height: 1.6; }
.s75-quote-auth  { font-size: .62rem; font-weight: 900; color: var(--pookie-muted); margin-top: .3rem; opacity: .65; }

.s75-sidebar-actions { display: flex; flex-direction: column; gap: .55rem; }

.s75-action-btn {
  display: flex;
  align-items: center;
  gap: .6rem;
  background: var(--pookie-surface);
  border: 1px solid var(--pookie-border);
  border-radius: 14px;
  padding: .7rem .95rem;
  font-size: .78rem; font-weight: 700;
  color: var(--pookie-muted);
  cursor: pointer;
  font-family: var(--pookie-font);
  transition: all .2s;
  text-align: left;
  width: 100%;
}
.s75-action-btn:hover {
  border-color: var(--pookie-border2);
  color: var(--pookie-text);
  background: var(--pookie-surface2);
  transform: translateX(3px);
}
.s75-action-icon { font-size: 1rem; flex-shrink: 0; }
.s75-action-text { display: flex; flex-direction: column; gap: .06rem; }
.s75-action-text small { font-size: .6rem; font-weight: 600; color: var(--pookie-muted); }

.s75-missed {
  padding: .85rem 1.1rem;
  display: flex;
  align-items: center;
  justify-content: space-between;
  gap: .75rem;
  border-left: 3px solid #fb7185;
  border-radius: 0 14px 14px 0;
  background: rgba(251,113,133,.06);
  flex-wrap: wrap;
}
.s75-missed-text { font-size: .76rem; font-weight: 700; color: var(--pookie-rose); }

.s75-main { display: flex; flex-direction: column; gap: 1.3rem; }

.s75-nav {
  display: flex;
  gap: .3rem;
  padding: .32rem;
  border-radius: 16px;
  overflow-x: auto;
  scrollbar-width: none;
  -webkit-overflow-scrolling: touch;
}
.s75-nav::-webkit-scrollbar { display: none; }

.s75-nav-btn {
  flex: 1;
  min-width: 80px;
  background: none;
  border: none;
  border-radius: 12px;
  color: var(--pookie-muted);
  font-family: var(--pookie-font);
  font-size: .78rem;
  font-weight: 800;
  padding: .54rem .5rem;
  cursor: pointer;
  transition: color .2s, background .2s, transform .15s;
  white-space: nowrap;
  -webkit-tap-highlight-color: transparent;
}
.s75-nav-btn:hover { color: var(--pookie-text); background: rgba(255,255,255,.04); }
.s75-nav-btn:active { transform: scale(.96); }
.s75-nav-active {
  background: var(--pookie-surface2) !important;
  color: var(--acc, var(--pookie-pink)) !important;
  box-shadow: inset 0 1px 0 rgba(255,255,255,.06);
}

.s75-section-head {
  display: flex;
  align-items: center;
  justify-content: space-between;
  margin-bottom: .2rem;
}
.s75-section-title {
  font-size: .7rem;
  font-weight: 900;
  text-transform: uppercase;
  letter-spacing: .13em;
  color: var(--pookie-muted);
}

.s75-tasks-panel { display: flex; flex-direction: column; gap: .55rem; padding: 1.35rem 1.35rem .8rem; }

.s75-task-row {
  display: flex;
  align-items: center;
  gap: .95rem;
  padding: .9rem 1.05rem;
  cursor: pointer;
  border: 1px solid var(--pookie-border);
  border-radius: 16px;
  background: transparent;
  width: 100%;
  text-align: left;
  font-family: var(--pookie-font);
  transition: background .2s, border-color .2s, transform .15s, box-shadow .2s;
  position: relative;
  overflow: hidden;
  -webkit-tap-highlight-color: transparent;
}
.s75-task-row::before {
  content: '';
  position: absolute;
  left: 0; top: 0; bottom: 0;
  width: 3px;
  background: var(--t-color, var(--pookie-pink));
  opacity: 0;
  transition: opacity .22s;
  border-radius: 0 2px 2px 0;
}
.s75-task-row::after {
  content: '';
  position: absolute;
  inset: 0;
  background: radial-gradient(ellipse 55% 80% at 0% 50%, rgba(244,114,182,.07) 0%, transparent 70%);
  opacity: 0;
  transition: opacity .25s;
  pointer-events: none;
}
.s75-task-row:hover:not(:disabled) {
  border-color: var(--pookie-border2);
  background: var(--pookie-surface);
  transform: translateX(4px);
  box-shadow: -4px 0 18px rgba(244,114,182,.08);
}
.s75-task-row:hover::before,
.s75-task-row.s75-done::before { opacity: 1; }
.s75-task-row:hover::after     { opacity: 1; }
.s75-task-row.s75-done { background: var(--pookie-surface); border-color: var(--pookie-border); }
.s75-task-row:active:not(:disabled) { transform: translateX(1px) scale(.99); }
.s75-task-row:disabled { opacity: .5; cursor: not-allowed; }
.s75-task-row:focus-visible {
  outline: 2px solid var(--t-color, var(--pookie-purple));
  outline-offset: 2px;
  border-radius: 16px;
}

.s75-task-icon-wrap {
  width: 40px; height: 40px;
  border-radius: 12px;
  display: flex; align-items: center; justify-content: center;
  flex-shrink: 0;
  transition: background .2s, transform .2s;
}
.s75-task-row:hover .s75-task-icon-wrap { transform: scale(1.08); }

.s75-task-content { flex: 1; display: flex; flex-direction: column; gap: .12rem; min-width: 0; }
.s75-task-name  { font-size: .87rem; font-weight: 800; color: var(--pookie-text); line-height: 1.25; transition: color .2s; }
.s75-done .s75-task-name { text-decoration: line-through; color: var(--pookie-muted); }
.s75-task-hint  { font-size: .68rem; color: var(--pookie-muted); font-weight: 600; white-space: nowrap; overflow: hidden; text-overflow: ellipsis; }

.s75-check-ring {
  width: 30px; height: 30px;
  border-radius: 50%;
  border: 2px solid var(--pookie-border2);
  display: flex; align-items: center; justify-content: center;
  flex-shrink: 0;
  color: #fff;
  transition: all .22s;
}
.s75-check-filled { border-color: transparent; }

.s75-task-progress {
  padding: .4rem 1.35rem .9rem;
  display: flex; align-items: center; gap: .8rem;
}
.s75-tp-bar {
  flex: 1;
  height: 6px;
  background: var(--pookie-surface2);
  border-radius: 6px;
  overflow: hidden;
}
.s75-tp-fill {
  height: 100%;
  border-radius: 6px;
  min-width: 6px;
  transition: width .55s cubic-bezier(.34,1.56,.64,1);
}
.s75-tp-label { font-size: .68rem; font-weight: 900; color: var(--pookie-muted); white-space: nowrap; }

.s75-all-done {
  margin: 0 1.35rem 1.35rem;
  padding: 1.1rem 1.35rem;
  border-radius: 16px;
  display: flex; align-items: center; gap: .9rem;
}
.s75-all-done-text  { display: flex; flex-direction: column; gap: .18rem; }
.s75-all-done-title { font-size: .9rem; font-weight: 900; color: var(--pookie-text); }
.s75-all-done-sub   { font-size: .72rem; color: var(--pookie-muted); font-weight: 600; }

.s75-reflection      { padding: 1.2rem 1.35rem; display: flex; flex-direction: column; gap: .7rem; }
.s75-reflection-head { display: flex; align-items: center; gap: .55rem; }
.s75-reflection-title{ font-size: .83rem; font-weight: 900; color: var(--pookie-text); }
.s75-refl-ta         { resize: vertical; min-height: 84px; line-height: 1.7; font-size: .85rem; }
.s75-refl-footer     { display: flex; align-items: center; justify-content: space-between; }
.s75-refl-chars      { font-size: .66rem; color: var(--pookie-muted); font-weight: 700; }
.s75-refl-chars[data-warn="true"] { color: var(--pookie-rose); font-weight: 900; }

.field-input:focus {
  box-shadow: 0 0 0 3px rgba(129, 140, 248, 0.25), var(--pookie-shadow);
  border-color: var(--pookie-purple);
}

.s75-stats-grid {
  display: grid;
  grid-template-columns: repeat(2, 1fr);
  gap: .8rem;
  padding: 1.35rem;
}
.s75-stat-tile {
  background: var(--pookie-surface2);
  border: 1px solid var(--pookie-border);
  border-radius: 16px;
  padding: 1.2rem 1.1rem;
  display: flex; flex-direction: column; gap: .22rem;
  position: relative; overflow: hidden;
  transition: transform .22s, box-shadow .22s;
  cursor: default;
}
.s75-stat-tile:hover { transform: translateY(-3px) scale(1.01); box-shadow: 0 10px 32px rgba(244,114,182,.14); }
.s75-stat-tile::after {
  content: '';
  position: absolute;
  top: 0; left: 0; right: 0;
  height: 2px;
  background: var(--tile-color, var(--pookie-pink));
  opacity: .75;
  border-radius: 2px 2px 0 0;
}
.s75-stat-emoji { font-size: 1.25rem; }
.s75-stat-val   { font-family: var(--pookie-display); font-size: 2rem; font-weight: 900; line-height: 1; }
.s75-stat-lbl   { font-size: .62rem; font-weight: 800; text-transform: uppercase; letter-spacing: .08em; color: var(--pookie-muted); }

.s75-breakdown { padding: 1.35rem; display: flex; flex-direction: column; gap: .75rem; }
.s75-bd-row    { display: flex; align-items: center; gap: .65rem; }
.s75-bd-icon   { flex-shrink: 0; }
.s75-bd-label  { font-size: .72rem; font-weight: 800; width: 100px; flex-shrink: 0; color: var(--pookie-text); overflow: hidden; text-overflow: ellipsis; white-space: nowrap; }
.s75-bd-bar    { flex: 1; height: 6px; background: var(--pookie-surface2); border-radius: 6px; overflow: hidden; }
.s75-bd-fill   { height: 100%; border-radius: 6px; min-width: 4px; }
.s75-bd-pct    { font-size: .7rem; font-weight: 900; width: 32px; text-align: right; flex-shrink: 0; }

.s75-heatmap-wrap { padding: 1.35rem; display: flex; flex-direction: column; gap: .9rem; }
.s75-hm-legend    { display: flex; gap: 1.1rem; font-size: .68rem; font-weight: 800; color: var(--pookie-muted); flex-wrap: wrap; }
.s75-hm-legend span { display: flex; align-items: center; gap: .3rem; }
.s75-hm-dot        { width: 9px; height: 9px; border-radius: 2px; display: inline-block; }

.s75-heatmap-grid  { display: flex; gap: 3px; overflow-x: auto; padding-bottom: 6px; scrollbar-width: none; -webkit-overflow-scrolling: touch; }
.s75-heatmap-grid::-webkit-scrollbar { display: none; }
.s75-hm-col        { display: flex; flex-direction: column; gap: 3px; }
.s75-hm-cell {
  width: 12px; height: 12px;
  border-radius: 3px;
  flex-shrink: 0;
  cursor: default;
  transition: transform .14s;
}
.s75-hm-cell:hover { transform: scale(1.7); z-index: 5; position: relative; }
.s75-hm-cell:focus-visible { outline: 2px solid var(--pookie-pink); outline-offset: 1px; border-radius: 3px; }
.s75-hm-future { background: rgba(244,114,182,.07); border: 1px solid rgba(244,114,182,.14); }
.s75-hm-note { font-size: .72rem; color: var(--pookie-muted); font-weight: 700; text-align: center; margin: 0; }

.s75-notif-card   { padding: 1.35rem; display: flex; flex-direction: column; gap: .9rem; }
.s75-notif-row    { display: flex; align-items: center; justify-content: space-between; gap: 1rem; }
.s75-notif-label  { font-size: .83rem; font-weight: 800; color: var(--pookie-text); display: flex; flex-direction: column; gap: .16rem; }
.s75-notif-label small { font-size: .68rem; font-weight: 600; color: var(--pookie-muted); }

.s75-toggle { position: relative; width: 46px; height: 26px; flex-shrink: 0; }
.s75-toggle input { opacity: 0; width: 0; height: 0; }
.s75-toggle-track {
  position: absolute; inset: 0;
  border-radius: 26px;
  background: var(--pookie-surface2);
  border: 1px solid var(--pookie-border);
  cursor: pointer;
  transition: background .25s, border-color .25s;
}
.s75-toggle-track::after {
  content: '';
  position: absolute;
  left: 4px; top: 4px;
  width: 16px; height: 16px;
  border-radius: 50%;
  background: var(--pookie-muted);
  transition: transform .25s cubic-bezier(.34,1.56,.64,1), background .25s;
}
.s75-toggle input:checked + .s75-toggle-track {
  background: linear-gradient(135deg, var(--pookie-purple2), var(--pookie-pink2));
  border-color: transparent;
}
.s75-toggle input:checked + .s75-toggle-track::after {
  transform: translateX(20px);
  background: #fff;
  box-shadow: 0 2px 8px rgba(244,114,182,.45);
}
.s75-toggle input:disabled + .s75-toggle-track { opacity: 0.4; cursor: not-allowed; }

.s75-time-row  { display: flex; align-items: center; gap: .6rem; flex-wrap: wrap; }
.s75-time-row label { font-size: .76rem; font-weight: 800; color: var(--pookie-muted); }
.s75-time-input {
  background: var(--pookie-surface);
  border: 1px solid var(--pookie-border);
  border-radius: 10px;
  padding: .4rem .75rem;
  color: var(--pookie-text);
  font-family: var(--pookie-font);
  font-size: .83rem; font-weight: 800;
  outline: none;
  transition: border-color .2s, box-shadow .2s;
  width: 124px;
}
.s75-time-input:focus { border-color: var(--pookie-pink); box-shadow: 0 0 0 3px rgba(244,114,182,.14); }

.s75-cal-row { display: flex; gap: .65rem; flex-wrap: wrap; }
.s75-cal-btn {
  display: flex; align-items: center; gap: .4rem;
  background: var(--pookie-surface);
  border: 1px solid var(--pookie-border);
  border-radius: 10px;
  padding: .52rem .9rem;
  font-size: .74rem; font-weight: 800;
  color: var(--pookie-muted);
  cursor: pointer;
  font-family: var(--pookie-font);
  transition: all .2s;
}
.s75-cal-btn:hover {
  border-color: var(--pookie-border2);
  color: var(--pookie-text);
  background: var(--pookie-surface2);
  transform: translateY(-2px);
}
.s75-cal-btn-primary { background: rgba(244,114,182,.08); border-color: rgba(244,114,182,.28); color: var(--pookie-pink); }
.s75-cal-btn-primary:hover { background: rgba(244,114,182,.18); color: var(--pookie-pink); }

.s75-builder       { display: flex; flex-direction: column; gap: .9rem; }
.s75-builder-list  { display: flex; flex-direction: column; gap: .5rem; min-height: 36px; }
.s75-builder-empty { font-size: .84rem; color: var(--pookie-muted); font-weight: 700; text-align: center; padding: .5rem; margin: 0; }

.s75-builder-item {
  display: flex; align-items: center; gap: .7rem;
  background: var(--pookie-surface2);
  border: 1px solid var(--pookie-border);
  border-radius: 14px;
  padding: .65rem .9rem;
  transition: border-color .18s;
}
.s75-builder-item:hover { border-color: var(--pookie-border2); }
.s75-bi-icon  { width: 32px; height: 32px; border-radius: 9px; display: flex; align-items: center; justify-content: center; flex-shrink: 0; }
.s75-bi-text  { flex: 1; display: flex; flex-direction: column; gap: .08rem; min-width: 0; }
.s75-bi-name  { font-size: .83rem; font-weight: 800; color: var(--pookie-text); }
.s75-bi-sub   { font-size: .66rem; color: var(--pookie-muted); font-weight: 600; }

.s75-builder-form { display: flex; flex-direction: column; gap: .65rem; }
.s75-picker-row   { display: flex; gap: 1rem; flex-wrap: wrap; align-items: flex-start; }
.s75-icon-grid    { display: flex; gap: .38rem; flex-wrap: wrap; }
.s75-icon-opt {
  width: 36px; height: 36px;
  border-radius: 9px;
  background: var(--pookie-surface2);
  border: 1px solid var(--pookie-border);
  color: var(--pookie-muted);
  display: flex; align-items: center; justify-content: center;
  cursor: pointer;
  transition: all .18s;
}
.s75-icon-opt:hover,
.s75-icon-sel { border-color: var(--pookie-border2); background: var(--pookie-surface); transform: translateY(-2px); }
.s75-color-grid { display: flex; gap: .38rem; align-items: center; flex-wrap: wrap; }
.s75-color-opt  { width: 22px; height: 22px; border-radius: 50%; border: 2px solid transparent; cursor: pointer; transition: transform .18s, box-shadow .18s; }
.s75-color-opt:hover { transform: scale(1.3); }

.s75-add-btn {
  display: flex; align-items: center; gap: .5rem; justify-content: center;
  background: var(--pookie-surface2);
  border: 1.5px dashed var(--pookie-border2);
  border-radius: 14px;
  padding: .65rem;
  font-size: .84rem; font-weight: 800;
  color: var(--pookie-muted);
  cursor: pointer;
  font-family: var(--pookie-font);
  transition: all .2s;
}
.s75-add-btn:hover:not(:disabled) {
  border-color: var(--pookie-pink);
  color: var(--pookie-pink);
  background: rgba(244,114,182,.06);
  transform: translateY(-2px);
}
.s75-add-btn:disabled { opacity: .4; cursor: not-allowed; }
.s75-builder-max { font-size: .74rem; color: var(--pookie-muted); text-align: center; margin: 0; font-weight: 700; }

.s75-burst {
  position: fixed;
  inset: 0;
  pointer-events: none;
  z-index: 9999;
  overflow: visible;
  top: 0; left: 0;
  width: 100%; height: 0;
}
.s75-burst-piece { position: absolute; top: 0; user-select: none; will-change: transform; }

.s75-complete-screen {
  max-width: 540px;
  margin: 4rem auto;
  text-align: center;
  display: flex; flex-direction: column; align-items: center; gap: 1.6rem;
  padding: 3.5rem 2.75rem;
  box-shadow: 0 0 120px rgba(244,114,182,.18), 0 0 60px rgba(168,85,247,.12), 0 24px 60px rgba(0,0,0,.55);
  position: relative;
  overflow: hidden;
}
.s75-complete-screen::before {
  content: '';
  position: absolute;
  inset: 0;
  background:
    radial-gradient(ellipse 60% 40% at 20% 10%, rgba(244,114,182,.1) 0%, transparent 60%),
    radial-gradient(ellipse 50% 35% at 80% 90%, rgba(168,85,247,.12) 0%, transparent 55%);
  pointer-events: none;
}
.s75-complete-anim  { width: 160px; height: 160px; filter: drop-shadow(0 0 32px rgba(244,114,182,.45)); position: relative; z-index: 1; }
.s75-complete-title { font-size: clamp(2.2rem, 6vw, 3rem); margin: 0; position: relative; z-index: 1; }
.s75-complete-sub   { font-size: .9rem; color: var(--pookie-muted); font-weight: 600; line-height: 1.75; margin: 0; max-width: 380px; position: relative; z-index: 1; }

.s75-complete-stats { display: flex; gap: 2.2rem; flex-wrap: wrap; justify-content: center; position: relative; z-index: 1; }
.s75-complete-stats > div { display: flex; flex-direction: column; align-items: center; gap: .22rem; }
.s75-cstat-num {
  font-family: var(--pookie-display);
  font-size: 2.2rem; font-weight: 900;
  background: linear-gradient(135deg, var(--pookie-pink), var(--pookie-purple));
  -webkit-background-clip: text; -webkit-text-fill-color: transparent; background-clip: text;
  line-height: 1;
}
.s75-cstat-lbl { font-size: .64rem; font-weight: 900; text-transform: uppercase; letter-spacing: .1em; color: var(--pookie-muted); }

.s75-modal-top { position: relative; overflow: hidden; }
.s75-modal-top::before {
  content: '';
  position: absolute; top: 0; left: 0; right: 0;
  height: 3px;
  background: var(--modal-grad, linear-gradient(90deg, var(--pookie-pink), var(--pookie-purple)));
  border-radius: 3px 3px 0 0;
}
.s75-modal-anim { width: 110px; height: 110px; margin: 0 auto -.5rem; }

.s75-start-panel {
  padding: 2.25rem 2rem;
  display: flex; flex-direction: column; align-items: center; gap: 1.35rem;
  text-align: center;
}
.s75-start-anim   { width: clamp(130px, 28vw, 190px); height: clamp(130px, 28vw, 190px); }
.s75-start-desc   { font-size: .9rem; color: var(--pookie-muted); font-weight: 600; line-height: 1.75; margin: 0; max-width: 420px; }
.s75-mantra-pill  {
  display: flex; align-items: center; gap: .55rem;
  background: var(--pookie-surface2);
  border: 1px solid var(--pookie-border2);
  border-radius: 50px;
  padding: .5rem 1.1rem;
  font-size: .79rem; font-style: italic; font-weight: 700; color: var(--pookie-text);
  transition: box-shadow .2s;
}
.s75-mantra-pill:hover { box-shadow: 0 0 18px rgba(244,114,182,.15); }
.s75-start-warn   { font-size: .7rem; color: var(--pookie-muted); line-height: 1.6; margin: 0; font-weight: 700; }
.s75-task-preview { display: flex; flex-wrap: wrap; gap: .38rem; justify-content: center; max-width: 440px; }

.s75-divider { height: 1px; background: var(--pookie-border); margin: .3rem 0; }

.s75-link-sm {
  background: none; border: none;
  color: var(--pookie-muted); font-size: .74rem;
  font-family: var(--pookie-font); cursor: pointer; padding: 0;
  text-decoration: underline; text-underline-offset: 3px;
  font-weight: 700; transition: color .15s;
}
.s75-link-sm:hover { color: var(--pookie-pink); }

.s75-dur-card:focus-visible,
.s75-mode-card:focus-visible { outline: 2px solid var(--dur-color, var(--pookie-purple)); outline-offset: 3px; }

@media (max-width: 960px) {
  .s75-app { grid-template-columns: 1fr; gap: 1.25rem; }
  .s75-sidebar { position: static; }
  .s75-hero { grid-template-columns: 1fr; text-align: center; gap: 2rem; padding: 2.75rem 1rem 2rem; }
  .s75-hero-text    { align-items: center; }
  .s75-hero-sub     { max-width: 100%; }
  .s75-hero-anim-wrap { order: -1; }
  .s75-mode-cards { grid-template-columns: 1fr 1fr; }
  .s75-steps      { grid-template-columns: 1fr; }
  .s75-steps::before { display: none; }
  .s75-identity     { padding: 1.35rem 1.1rem; }
  .s75-streak-row   { grid-template-columns: repeat(4, 1fr); }
  .s75-arc-wrap     { flex-direction: row; }
}

@media (max-width: 640px) {
  .s75-page { padding-top: 68px; }
  .s75-layout { padding: 0 .9rem; }
  .s75-hero { padding: 2.25rem .5rem 1.75rem; gap: 1.4rem; }
  .s75-hero-title { font-size: clamp(1.9rem, 8.5vw, 2.7rem); }
  .s75-hero-anim  { width: 190px; height: 190px; }
  .s75-modes-section,
  .s75-how,
  .s75-duration-section { padding-left: .9rem; padding-right: .9rem; }
  .s75-mode-cards { grid-template-columns: 1fr; }
  .s75-mode-card  { padding: 1.3rem 1.1rem 1.1rem; }
  .s75-app { padding: 1rem .9rem 2.5rem; }
  .s75-stats-grid   { grid-template-columns: 1fr 1fr; padding: 1rem; }
  .s75-tasks-panel  { padding: 1.1rem 1.1rem .7rem; }
  .s75-task-progress{ padding: .35rem 1.1rem .8rem; }
  .s75-all-done     { margin: 0 1.1rem 1.1rem; }
  .s75-reflection   { padding: 1rem 1.1rem; }
  .s75-breakdown,
  .s75-heatmap-wrap { padding: 1.1rem; }
  .s75-notif-card   { padding: 1.1rem; }
  .s75-hm-cell      { width: 10px; height: 10px; }
  .s75-day-big      { font-size: 2.75rem; }
  .s75-streak-row   { grid-template-columns: 1fr 1fr; }
  .s75-arc-wrap     { flex-direction: column; align-items: flex-start; gap: .7rem; }
  .s75-dur-card     { min-width: 130px; }
  .s75-complete-screen { margin: 2rem auto; padding: 2.25rem 1.35rem; }
  .s75-complete-stats  { gap: 1.4rem; }
  .s75-start-panel { padding: 1.75rem 1.35rem; }
}

@media (max-width: 380px) {
  .s75-stats-grid { grid-template-columns: 1fr; }
  .s75-hm-cell    { width: 8px; height: 8px; }
  .s75-hero-title { font-size: clamp(1.65rem, 9.5vw, 2.2rem); }
  .s75-nav-btn    { font-size: .7rem; padding: .48rem .38rem; }
  .s75-streak-row { grid-template-columns: 1fr 1fr; }
  .s75-dur-card   { min-width: 118px; }
  .s75-complete-screen { padding: 1.75rem 1rem; }
}

@media (hover: none) and (pointer: coarse) {
  .s75-task-row:hover:not(:disabled) { transform: none; }
  .s75-task-row:active:not(:disabled) { background: var(--pookie-surface); border-color: var(--pookie-border2); }
  .s75-dur-card:hover  { transform: none; }
  .s75-dur-card:active { transform: scale(.97); }
  .s75-mode-card:hover { transform: none; }
  .s75-mode-card:active{ transform: scale(.98); }
  .s75-check-ring      { min-width: 32px; min-height: 32px; }
}

@media (prefers-reduced-motion: reduce) {
  .s75-mesh,
  .s75-burst,
  .s75-hero-ring,
  .s75-accent-word,
  .s75-eyebrow::after,
  .s75-identity::after { animation: none !important; }
}





import { Helmet } from 'react-helmet-async';
import { useState, useEffect, useCallback, useMemo, useRef } from "react";
import { motion, AnimatePresence } from "framer-motion";
import Lottie from "lottie-react";
import { FaCheck, FaTimes, FaTrophy, FaRedo, FaPlus, FaHeart } from "react-icons/fa";
import {
  LuBookOpen, LuTarget, LuPencil, LuClock, LuTrendingUp, LuZap,
  LuCode, LuCalculator, LuMicroscope, LuBrain, LuSparkles,
  LuBell, LuCalendarPlus, LuChevronRight, LuFlame,
  LuPenTool, LuAtom, LuMusic2, LuLanguages, LuLeaf, LuTimer,
  LuCalendar, LuStar, LuSettings
} from "react-icons/lu";
import { db, auth } from "../components/firebase";
import {
  doc, getDoc, setDoc, collection,
  query, where, getDocs, addDoc, updateDoc,
  serverTimestamp, writeBatch, increment
} from "firebase/firestore";
import { onAuthStateChanged } from "firebase/auth";
import { toast } from "react-hot-toast";

import workingAnim     from "../assets/working.json";
import instructionAnim from "../assets/instruction-animation.json";
import challengeAnim   from "../assets/challenge-animation.json";

import "./Challenge75Hard.css";

if ("serviceWorker" in navigator) {
  navigator.serviceWorker
    .register("/sw.js")
    .then((reg) => console.log("SW registered:", reg.scope))
    .catch((err) => console.error("SW registration failed:", err));
}

const DURATION_PRESETS = [
  { id: "7",   days: 7,   label: "Starter Sprint",  sub: "Build the habit",          emoji: "🌱", color: "#34d399", color2: "#10b981", glow: "rgba(52,211,153,.22)",   grad: "linear-gradient(135deg,#34d399,#10b981)",  badge: "Beginner" },
  { id: "14",  days: 14,  label: "Two-Week Push",   sub: "Momentum builder",          emoji: "⚡", color: "#38bdf8", color2: "#0ea5e9", glow: "rgba(56,189,248,.22)",   grad: "linear-gradient(135deg,#38bdf8,#0ea5e9)",  badge: null },
  { id: "30",  days: 30,  label: "Month Mastery",   sub: "Identity shift",            emoji: "🎯", color: "#fbbf24", color2: "#f59e0b", glow: "rgba(251,191,36,.22)",   grad: "linear-gradient(135deg,#fbbf24,#f59e0b)",  badge: "Popular" },
  { id: "75",  days: 75,  label: "75-Day Hard",     sub: "The original",              emoji: "🧠", color: "#818cf8", color2: "#a855f7", glow: "rgba(129,140,248,.22)",  grad: "linear-gradient(135deg,#818cf8,#a855f7)",  badge: "Classic" },
  { id: "180", days: 180, label: "Half-Year Haul",  sub: "Scholar transformation",    emoji: "🏆", color: "#f472b6", color2: "#ec4899", glow: "rgba(244,114,182,.22)",  grad: "linear-gradient(135deg,#f472b6,#ec4899)",  badge: "Elite" },
  { id: "custom", days: null, label: "Custom",      sub: "Your timeline",             emoji: "✏️", color: "#fb923c", color2: "#f97316", glow: "rgba(251,146,60,.22)",   grad: "linear-gradient(135deg,#fb923c,#f97316)",  badge: null },
];

const CHAL_COL  = "study_challenges";
const LOGS_COL  = "study_logs";
const GRACE_MAX = 3;

const QUOTES = [
  { text: "Small consistent actions compound into extraordinary results.", author: "James Clear" },
  { text: "The expert in anything was once a beginner.", author: "Helen Hayes" },
  { text: "Study not to know more, but to understand more deeply.", author: "Seneca" },
  { text: "Learning is not attained by chance. It must be sought with ardor.", author: "Abigail Adams" },
  { text: "The capacity to learn is a gift; the ability to learn is a skill.", author: "Brian Herbert" },
  { text: "An investment in knowledge pays the best interest.", author: "Benjamin Franklin" },
  { text: "It does not matter how slowly you go as long as you do not stop.", author: "Confucius" },
  { text: "Education is not the filling of a pail, but the lighting of a fire.", author: "W.B. Yeats" },
  { text: "Excellence is not a destination but a continuous journey.", author: "Brian Tracy" },
  { text: "You don't rise to the level of your goals — you fall to the level of your systems.", author: "James Clear" },
];

const MODES = {
  deepWork: {
    id: "deepWork", label: "Deep Focus", subtitle: "Zero Distractions",
    emoji: "🧠", lottie: workingAnim,
    color: "#818cf8", color2: "#a855f7",
    glow: "rgba(129,140,248,.22)",
    grad: "linear-gradient(135deg,#818cf8,#a855f7)",
    description: "Ruthless deep work. Build the focus muscle that separates scholars from dreamers.",
    mantra: "Depth over breadth. Mastery over mediocrity.",
    tasks: [
      { id: "deep3h",    label: "3 hrs Deep Work",        hint: "Single session, zero distractions", Icon: LuClock,      color: "#818cf8" },
      { id: "problems",  label: "10+ Practice Problems",  hint: "Active solving, not passive reading", Icon: LuCalculator, color: "#a855f7" },
      { id: "read20",    label: "Read 20 Pages",           hint: "Textbook or academic paper",        Icon: LuBookOpen,   color: "#38bdf8" },
      { id: "notes",     label: "Structured Notes",        hint: "Cornell, Zettelkasten, mind-map",    Icon: LuPenTool,    color: "#34d399" },
      { id: "review",    label: "Spaced Repetition",       hint: "Flashcards or active recall",        Icon: LuMicroscope, color: "#fbbf24" },
      { id: "nopassive", label: "No Passive Scroll",       hint: "No mindless social or YouTube",      Icon: LuTarget,     color: "#fb923c" },
    ],
  },
  academic: {
    id: "academic", label: "Academic Edge", subtitle: "Scholar Mode",
    emoji: "📚", lottie: instructionAnim,
    color: "#38bdf8", color2: "#818cf8",
    glow: "rgba(56,189,248,.22)",
    grad: "linear-gradient(135deg,#38bdf8,#818cf8)",
    description: "Comprehensive academic excellence. Read, write, solve and review every single day.",
    mantra: "Knowledge compounds like interest. Start now.",
    tasks: [
      { id: "read30",    label: "Read 30 Pages",           hint: "Textbook, paper or non-fiction",     Icon: LuBookOpen,  color: "#38bdf8" },
      { id: "write",     label: "Write 500 Words",          hint: "Essay, journal, or synthesis notes", Icon: LuPencil,    color: "#818cf8" },
      { id: "problems2", label: "Problem Sets",             hint: "At least 8 practice questions",      Icon: LuAtom,      color: "#a855f7" },
      { id: "review2",   label: "Active Recall",            hint: "Quiz yourself without looking",      Icon: LuBrain,     color: "#34d399" },
      { id: "research",  label: "Research Hour",            hint: "Explore beyond the syllabus",        Icon: LuTrendingUp,color: "#fbbf24" },
      { id: "noscroll2", label: "Screen-Free Hour",         hint: "1 hr completely device-free",         Icon: LuLeaf,      color: "#fb923c" },
    ],
  },
  custom: {
    id: "custom", label: "My Challenge", subtitle: "Your Rules",
    emoji: "⚡", lottie: challengeAnim,
    color: "#f472b6", color2: "#fbbf24",
    glow: "rgba(244,114,182,.22)",
    grad: "linear-gradient(135deg,#f472b6,#fbbf24)",
    description: "Design your own challenge. Pick your tasks, set your standards, own your transformation.",
    mantra: "The best system is the one you'll actually follow.",
    tasks: [],
  },
};

const ICON_OPTIONS = [
  { id: "book",    Icon: LuBookOpen   },
  { id: "brain",   Icon: LuBrain      },
  { id: "target",  Icon: LuTarget     },
  { id: "zap",     Icon: LuZap        },
  { id: "clock",   Icon: LuClock      },
  { id: "pencil",  Icon: LuPencil     },
  { id: "code",    Icon: LuCode       },
  { id: "calc",    Icon: LuCalculator },
  { id: "micro",   Icon: LuMicroscope },
  { id: "music",   Icon: LuMusic2     },
  { id: "lang",    Icon: LuLanguages  },
  { id: "trend",   Icon: LuTrendingUp },
];
const COLORS   = ["#818cf8","#a855f7","#38bdf8","#34d399","#fbbf24","#f472b6","#fb923c","#f87171"];
const ICON_MAP = Object.fromEntries(ICON_OPTIONS.map(o => [o.id, o.Icon]));

function safeToDate(ts) {
  if (!ts) return new Date();
  if (ts.toDate) return ts.toDate();
  if (ts instanceof Date) return ts;
  const p = new Date(ts);
  return isNaN(p.getTime()) ? new Date() : p;
}

function getDayNumber(startDate, totalDays) {
  const start = Date.UTC(startDate.getFullYear(), startDate.getMonth(), startDate.getDate());
  const now   = new Date();
  const today = Date.UTC(now.getFullYear(), now.getMonth(), now.getDate());
  return Math.min(Math.max(Math.floor((today - start) / 86_400_000) + 1, 1), totalDays);
}

function todayKey() {
  const d = new Date();
  return `${d.getFullYear()}-${String(d.getMonth() + 1).padStart(2, "0")}-${String(d.getDate()).padStart(2, "0")}`;
}

function logDocId(uid, mode, durId, dayNum) {
  return `${uid}_${mode}_${durId}_day${dayNum}`;
}

const ALARM_KEY = "s75-pending-alarms";

const AlarmScheduler = {
  schedule(id, title, body, delayMs) {
    let all = [];
    try { all = JSON.parse(localStorage.getItem(ALARM_KEY) || "[]"); } catch { all = []; }
    all = all.filter(a => a.id !== id);
    all.push({ id, fireTime: Date.now() + delayMs, title, body, notified: false });
    localStorage.setItem(ALARM_KEY, JSON.stringify(all));
    AlarmScheduler.check();
  },
  check() {
    const now = Date.now();
    let all = [];
    try { all = JSON.parse(localStorage.getItem(ALARM_KEY) || "[]"); } catch { return []; }
    let changed = false;
    all.forEach((a) => {
      if (!a.notified && a.fireTime <= now) {
        a.notified = true;
        changed = true;
        if ("Notification" in window && Notification.permission === "granted") {
          navigator.serviceWorker?.ready.then((reg) =>
            reg.showNotification(a.title, { body: a.body, icon: "/favicon.ico", tag: a.id, requireInteraction: true })
          ).catch(() => { new Notification(a.title, { body: a.body, icon: "/favicon.ico" }); });
        }
      }
    });
    if (changed) localStorage.setItem(ALARM_KEY, JSON.stringify(all));
    return all.filter((a) => !a.notified);
  },
  clearAll() { localStorage.removeItem(ALARM_KEY); },
};

function chalId(uid, mode, durId)      { return `${uid}_${mode}_${durId}`; }
function userModeKey(uid, mode, durId) { return `${uid}_${mode}_${durId}`; }
function getDurPreset(durId)           { return DURATION_PRESETS.find(d => d.id === durId) || DURATION_PRESETS[3]; }
function serializeTasks(tasks)         { return tasks.map(({ Icon, ...rest }) => rest); }
function hydrateTasks(tasks)           { return (tasks || []).map(t => ({ ...t, Icon: ICON_MAP[t.iconId] || LuTarget })); }

async function fetchChallenge(uid, mode, durId) {
  const snap = await getDoc(doc(db, "users", uid, CHAL_COL, chalId(uid, mode, durId)));
  return snap.exists() ? snap.data() : null;
}

async function fetchLogs(uid, mode, durId) {
  const q    = query(
    collection(db, LOGS_COL),
    where("userModeKey", "==", userModeKey(uid, mode, durId)),
    where("archived", "==", false)
  );
  const snap = await getDocs(q);
  const logs = snap.docs.map(d => ({ _id: d.id, ...d.data() }));
  logs.sort((a, b) => a.day - b.day);
  return logs;
}

async function upsertLog(uid, mode, durId, dayNum, fields) {
  const key   = userModeKey(uid, mode, durId);
  const docId = logDocId(uid, mode, durId, dayNum);
  const ref   = doc(db, LOGS_COL, docId);
  const base  = { userModeKey: key, userId: uid, mode, durId, day: dayNum, archived: false };
  try {
    const snap = await getDoc(ref);
    if (!snap.exists()) {
      await setDoc(ref, { ...base, ...fields });
    } else {
      await updateDoc(ref, fields);
    }
  } catch (err) {
    console.error("upsertLog failed:", err);
    throw err;
  }
}

async function requestNotifPermission() {
  if (!("Notification" in window)) return "unsupported";
  if (Notification.permission === "granted") return "granted";
  return await Notification.requestPermission();
}

function makeICS(title, description, durationDays) {
  const now = new Date();
  const end = new Date(now);
  end.setDate(end.getDate() + durationDays);
  const fmt = (d) => d.toISOString().replace(/[-:]/g, "").split(".")[0] + "Z";
  return [
    "BEGIN:VCALENDAR","VERSION:2.0","PRODID:-//StudyBuddy//EN",
    "CALSCALE:GREGORIAN","METHOD:PUBLISH","BEGIN:VEVENT",
    `UID:study-${Date.now()}@studybuddy.app`,
    `DTSTAMP:${fmt(now)}`,`DTSTART:${fmt(now)}`,`DTEND:${fmt(end)}`,
    `SUMMARY:${title}`,`DESCRIPTION:${description.replace(/\n/g, "\\n")}`,
    `RRULE:FREQ=DAILY;COUNT=${durationDays}`,
    "BEGIN:VALARM","ACTION:DISPLAY","DESCRIPTION:Study time! Day check-in.",
    "TRIGGER:-PT15M","END:VALARM","END:VEVENT","END:VCALENDAR",
  ].join("\r\n");
}

function downloadICS(content, filename) {
  const blob = new Blob([content], { type: "text/calendar" });
  const url  = URL.createObjectURL(blob);
  const a    = document.createElement("a");
  a.href = url; a.download = filename; a.click();
  URL.revokeObjectURL(url);
}

function openGoogleCalendar(title, description, durationDays) {
  const now    = new Date();
  const end    = new Date(now);
  end.setDate(end.getDate() + durationDays);
  const fmt    = (d) => d.toISOString().replace(/[-:]/g, "").replace(/\..+/, "") + "Z";
  const params = new URLSearchParams({
    action: "TEMPLATE", text: title,
    dates: `${fmt(now)}/${fmt(end)}`,
    details: description,
    recur: `RRULE:FREQ=DAILY;COUNT=${durationDays}`,
  });
  window.open(`https://calendar.google.com/calendar/render?${params.toString()}`, "_blank");
}

function Burst({ active, accent = "#818cf8" }) {
  const pieces = useMemo(() => Array.from({ length: 32 }, (_, i) => ({
    id: i,
    emoji: ["✨","🌟","💫","⚡","💜","🔵","📚","🧠","🎯","💡","🌸","⭐"][i % 12],
    x:     Math.random() * 100,
    delay: Math.random() * 0.4,
    dur:   1.1 + Math.random() * 0.9,
    rot:   Math.random() * 720 - 360,
    size:  0.8 + Math.random() * 0.8,
  })), []);
  if (!active) return null;
  return (
    <div className="s75-burst" aria-hidden="true">
      {pieces.map(p => (
        <motion.span key={p.id} className="s75-burst-piece"
          style={{ left: `${p.x}%`, fontSize: `${p.size}rem` }}
          initial={{ y: -10, opacity: 1 }}
          animate={{ y: "110vh", opacity: 0, rotate: p.rot }}
          transition={{ delay: p.delay, duration: p.dur, ease: "easeIn" }}>
          {p.emoji}
        </motion.span>
      ))}
    </div>
  );
}

function ArcRing({ pct = 0, size = 90, stroke = 7, label, sub, c1 = "#818cf8", c2 = "#a855f7" }) {
  const r    = (size - stroke) / 2;
  const circ = 2 * Math.PI * r;
  const dash = circ * Math.min(pct, 1);
  const gid  = `arc-${c1.replace("#", "")}-${size}`;
  return (
    <div className="s75-arc-ring" style={{ width: size, height: size, position: "relative", flexShrink: 0 }}>
      <svg width={size} height={size}>
        <defs>
          <linearGradient id={gid} x1="0%" y1="0%" x2="100%" y2="100%">
            <stop offset="0%"   stopColor={c1} />
            <stop offset="100%" stopColor={c2} />
          </linearGradient>
        </defs>
        <circle cx={size/2} cy={size/2} r={r} className="s75-arc-bg" strokeWidth={stroke} />
        <motion.circle cx={size/2} cy={size/2} r={r} fill="none"
          stroke={`url(#${gid})`} strokeWidth={stroke}
          strokeDasharray={`${dash} ${circ}`} strokeLinecap="round"
          transform={`rotate(-90 ${size/2} ${size/2})`}
          initial={{ strokeDasharray: `0 ${circ}` }}
          animate={{ strokeDasharray: `${dash} ${circ}` }}
          transition={{ duration: 1.1, ease: "easeOut" }} />
      </svg>
      <div style={{ position: "absolute", inset: 0, display: "flex", flexDirection: "column", alignItems: "center", justifyContent: "center" }}>
        <span style={{ fontSize: ".86rem", fontWeight: 900, color: "var(--pookie-text)", lineHeight: 1 }}>{label}</span>
        {sub && <span style={{ fontSize: ".5rem", color: "var(--pookie-muted)", fontWeight: 700, textTransform: "uppercase", letterSpacing: ".06em" }}>{sub}</span>}
      </div>
    </div>
  );
}

function Heatmap({ logs, accent, accent2, totalDays }) {
  const cells = useMemo(() => Array.from({ length: totalDays }, (_, i) => {
    const log = logs.find(l => l.day === i + 1);
    const pct = log ? Object.values(log.tasks || {}).filter(Boolean).length / (log.totalTasks || 6) : 0;
    return { day: i + 1, status: !log ? "future" : log.allDone ? "done" : "partial", pct };
  }), [logs, totalDays]);

  const cols = useMemo(() => {
    const c = [];
    for (let i = 0; i < cells.length; i += 7) c.push(cells.slice(i, i + 7));
    return c;
  }, [cells]);

  return (
    <div className="s75-heatmap-grid" role="grid" aria-label="Progress heatmap">
      {cols.map((col, ci) => (
        <div key={ci} className="s75-hm-col" role="row">
          {col.map(c => (
            <motion.div key={c.day}
              className={`s75-hm-cell ${c.status === "future" ? "s75-hm-future" : ""}`}
              role="gridcell"
              aria-label={`Day ${c.day}: ${c.status}`}
              style={
                c.status === "done"    ? { background: `linear-gradient(135deg,${accent},${accent2})` } :
                c.status === "partial" ? { background: accent, opacity: 0.15 + c.pct * 0.55 } : {}
              }
              title={`Day ${c.day}${c.status !== "future" ? ` — ${c.status}` : ""}`}
              whileHover={{ scale: 1.6, zIndex: 10 }}
              transition={{ type: "spring", stiffness: 500 }} />
          ))}
        </div>
      ))}
    </div>
  );
}

function DurationPicker({ selected, onSelect, customDays, onCustomDays }) {
  return (
    <div className="s75-duration-section">
      <div className="s75-section-label">
        <LuTimer size={12} style={{ display: "inline", verticalAlign: "middle" }} /> Choose your challenge length
      </div>
      <div className="s75-duration-scroll">
        {DURATION_PRESETS.map((d, i) => (
          <motion.button
            key={d.id}
            className={`s75-dur-card ${selected?.id === d.id ? "s75-dur-card-active" : ""}`}
            style={{ "--dur-color": d.color, "--dur-glow": d.glow, "--dur-grad": d.grad }}
            onClick={() => onSelect(d)}
            initial={{ opacity: 0, y: 14 }} animate={{ opacity: 1, y: 0 }} transition={{ delay: 0.3 + i * 0.05 }}
            whileTap={{ scale: 0.97 }}
            aria-pressed={selected?.id === d.id}
            aria-label={`${d.label}: ${d.days || "custom"} days`}>
            {d.badge && (
              <span className="s75-dur-badge" style={{ color: d.color, background: `${d.color}15`, borderColor: `${d.color}35` }}>
                {d.badge}
              </span>
            )}
            <div className="s75-dur-emoji">{d.emoji}</div>
            {d.id === "custom" ? (
              <div className="s75-dur-custom-input">
                <input
                  type="number"
                  min={3} max={365}
                  value={customDays || ""}
                  placeholder="—"
                  aria-label="Custom number of days"
                  onChange={e => {
                    const v = Math.min(365, Math.max(3, parseInt(e.target.value) || 0));
                    onCustomDays(v || "");
                    onSelect(d);
                  }}
                  onClick={e => { e.stopPropagation(); onSelect(d); }}
                  style={{ "--dur-color": d.color }}
                />
                <div className="s75-dur-label" style={{ color: d.color }}>days</div>
              </div>
            ) : (
              <div className="s75-dur-days">{d.days}</div>
            )}
            <div className="s75-dur-label">{d.label}</div>
            <div className="s75-dur-sub">{d.sub}</div>
          </motion.button>
        ))}
      </div>
    </div>
  );
}

function CustomBuilder({ tasks, onChange }) {
  const [label,  setLabel]  = useState("");
  const [hint,   setHint]   = useState("");
  const [iconId, setIconId] = useState("book");
  const [color,  setColor]  = useState(COLORS[0]);

  const add = useCallback(() => {
    if (!label.trim() || tasks.length >= 8) return;
    onChange([...tasks, {
      id:     `ct_${Date.now()}`,
      label:  label.trim(),
      hint:   hint.trim() || "Complete daily",
      iconId,
      color,
      Icon:   ICON_MAP[iconId] || LuTarget,
    }]);
    setLabel(""); setHint("");
  }, [label, hint, iconId, color, tasks, onChange]);

  return (
    <div className="s75-builder">
      <div className="s75-builder-list">
        {tasks.length === 0 && <p className="s75-builder-empty">✨ Add your daily study tasks below</p>}
        <AnimatePresence>
          {tasks.map((t, i) => (
            <motion.div key={t.id} className="s75-builder-item"
              initial={{ opacity: 0, x: -10 }} animate={{ opacity: 1, x: 0 }}
              exit={{ opacity: 0, x: 10 }} transition={{ delay: i * 0.04 }}>
              <div className="s75-bi-icon" style={{ background: `${t.color}20` }}>
                <t.Icon size={14} style={{ color: t.color }} />
              </div>
              <div className="s75-bi-text">
                <span className="s75-bi-name">{t.label}</span>
                <span className="s75-bi-sub">{t.hint}</span>
              </div>
              <button className="close-btn" onClick={() => onChange(tasks.filter(x => x.id !== t.id))}
                aria-label={`Remove task: ${t.label}`}>
                <FaTimes size={9} />
              </button>
            </motion.div>
          ))}
        </AnimatePresence>
      </div>
      {tasks.length < 8 && (
        <div className="s75-builder-form">
          <input className="field-input" placeholder="Task name (e.g. Read 20 pages)"
            value={label} onChange={e => setLabel(e.target.value)}
            onKeyDown={e => e.key === "Enter" && add()} maxLength={40}
            aria-label="Task name" />
          <input className="field-input" placeholder="Short hint (optional)"
            value={hint} onChange={e => setHint(e.target.value)} maxLength={60}
            aria-label="Task hint" />
          <div className="s75-picker-row">
            <div className="s75-icon-grid" role="group" aria-label="Choose icon">
              {ICON_OPTIONS.map(o => (
                <button key={o.id}
                  className={`s75-icon-opt ${iconId === o.id ? "s75-icon-sel" : ""}`}
                  style={{ color: iconId === o.id ? color : "var(--pookie-muted)" }}
                  onClick={() => setIconId(o.id)}
                  aria-label={o.id}
                  aria-pressed={iconId === o.id}>
                  <o.Icon size={14} />
                </button>
              ))}
            </div>
            <div className="s75-color-grid" role="group" aria-label="Choose colour">
              {COLORS.map(c => (
                <button key={c} className="s75-color-opt"
                  style={{ background: c, boxShadow: color === c ? `0 0 0 2px var(--pookie-bg),0 0 0 3.5px ${c}` : "none" }}
                  onClick={() => setColor(c)}
                  aria-label={`Colour ${c}`}
                  aria-pressed={color === c} />
              ))}
            </div>
          </div>
          <button className="s75-add-btn" onClick={add} disabled={!label.trim()}>
            <FaPlus size={10} /> Add Task
          </button>
        </div>
      )}
      {tasks.length >= 8 && <p className="s75-builder-max">Maximum 8 tasks — you're focused 🎯</p>}
    </div>
  );
}

function NotifCard({ cfg, durPreset, dayNum, totalDays, notifEnabled, setNotifEnabled, notifTime, setNotifTime }) {
  const [notifStatus, setNotifStatus] = useState(() => {
    if (typeof window !== "undefined" && "Notification" in window) return Notification.permission;
    return "unsupported";
  });

  async function toggleNotifs() {
    if (!notifEnabled) {
      const perm = await requestNotifPermission();
      setNotifStatus(perm);
      if (perm === "granted") {
        setNotifEnabled(true);
        scheduleAlarm(notifTime, dayNum);
        toast.success("Reminders enabled! 🔔");
      } else if (perm === "denied") {
        toast.error("Notifications blocked. Enable them in browser settings.");
      } else if (perm === "unsupported") {
        toast.error("Your browser doesn't support notifications.");
      }
    } else {
      setNotifEnabled(false);
      AlarmScheduler.clearAll();
      toast("Reminders turned off.", { icon: "🔕" });
    }
  }

  function scheduleAlarm(time, day) {
    const [h, m] = time.split(":").map(Number);
    const now    = new Date();
    const fire   = new Date(now.getFullYear(), now.getMonth(), now.getDate(), h, m, 0, 0);
    if (fire <= now) fire.setDate(fire.getDate() + 1);
    const delay = fire.getTime() - Date.now();
    AlarmScheduler.schedule(`study-${day}`, "📚 Study Reminder", `Day ${day} — time to complete your tasks!`, delay);
  }

  function saveTime() {
    if (notifEnabled) {
      AlarmScheduler.clearAll();
      scheduleAlarm(notifTime, dayNum);
      toast.success(`Reminder set for ${notifTime} daily ⏰`);
    }
  }

  const title = `${cfg.emoji} ${cfg.label} — ${totalDays}-Day Study Challenge`;
  const desc  = `${cfg.description} Daily tasks: ${cfg.tasks.map(t => t.label || "").join(", ")}`;

  return (
    <div className="s75-notif-card glass-card-sm">
      <div className="s75-section-head">
        <span className="s75-section-title">
          <LuBell size={11} style={{ display: "inline", verticalAlign: "middle", marginRight: 4 }} />
          Reminders &amp; Calendar
        </span>
      </div>
      <div className="s75-notif-row">
        <div className="s75-notif-label">
          Daily Study Reminder
          <small>{notifEnabled ? `Enabled — fires at ${notifTime}` : "Get a nudge every day"}</small>
        </div>
        <label className="s75-toggle" aria-label="Toggle daily reminders">
          <input
            type="checkbox"
            role="switch"
            aria-checked={notifEnabled}
            checked={notifEnabled}
            onChange={toggleNotifs}
            disabled={notifStatus === "denied"}
          />
          <span className="s75-toggle-track" aria-hidden="true" />
        </label>
      </div>
      {notifEnabled && (
        <motion.div className="s75-time-row"
          initial={{ opacity: 0, y: -4 }} animate={{ opacity: 1, y: 0 }}>
          <label htmlFor="notif-time-input">Time:</label>
          <input
            id="notif-time-input"
            type="time"
            className="s75-time-input"
            value={notifTime}
            onChange={e => setNotifTime(e.target.value)}
            aria-label="Reminder time"
          />
          <button className="btn-ghost" style={{ padding: ".36rem .8rem", fontSize: ".74rem" }} onClick={saveTime}>
            Save
          </button>
        </motion.div>
      )}
      {notifStatus === "denied" && (
        <p style={{ fontSize: ".68rem", color: "var(--pookie-rose)", fontWeight: 700, margin: 0, lineHeight: 1.5 }}>
          ⚠️ Notifications are blocked. Allow them in your browser settings to enable reminders.
        </p>
      )}
      <div className="s75-divider" />
      <span style={{ fontSize: ".7rem", fontWeight: 700, color: "var(--pookie-muted)", textTransform: "uppercase", letterSpacing: ".1em" }}>
        Add to Calendar
      </span>
      <div className="s75-cal-row">
        <button className="s75-cal-btn s75-cal-btn-primary"
          onClick={() => { openGoogleCalendar(title, desc, totalDays); toast.success("Opening Google Calendar…"); }}>
          <LuCalendarPlus size={12} /> Google
        </button>
        <button className="s75-cal-btn"
          onClick={() => { downloadICS(makeICS(title, desc, totalDays), "study-challenge.ics"); toast.success("Calendar file downloaded!"); }}>
          <LuCalendarPlus size={12} /> .ics file
        </button>
      </div>
      <p style={{ fontSize: ".66rem", color: "var(--pookie-muted)", fontWeight: 600, margin: 0, lineHeight: 1.5 }}>
        .ics works with Apple Calendar, Outlook &amp; most apps. Includes a native 15-min alarm.
      </p>
    </div>
  );
}

function IntroScreen({ onPickModeAndDur, existingChallenges, selectedDur, onSelectDur, customDays, onCustomDays }) {
  const q = useMemo(() => QUOTES[Math.floor(Math.random() * QUOTES.length)], []);
  const effectiveDays = selectedDur?.id === "custom" ? (customDays || null) : selectedDur?.days;

  return (
    <div className="s75-intro-wrap">
      <div className="s75-hero">
        <motion.div className="s75-hero-text"
          initial={{ opacity: 0, y: 28 }} animate={{ opacity: 1, y: 0 }} transition={{ duration: 0.75 }}>
          <motion.div className="s75-eyebrow"
            initial={{ opacity: 0, y: -10 }} animate={{ opacity: 1, y: 0 }} transition={{ delay: 0.3 }}>
            <LuSparkles size={11} /> Flexible Study Challenge
          </motion.div>
          <h1 className="s75-hero-title">
            Transform your<br />
            <span className="s75-accent-word">mind</span> at your pace
          </h1>
          <p className="s75-hero-sub">
            7 days or 180 days — pick your timeline, choose your style, and build academic habits that actually stick.
          </p>
          <motion.blockquote style={{ margin: 0 }}
            initial={{ opacity: 0 }} animate={{ opacity: 1 }} transition={{ delay: 0.7 }}>
            <p style={{ fontSize: ".84rem", fontStyle: "italic", color: "var(--pookie-muted)", fontWeight: 600, lineHeight: 1.65, margin: 0 }}>
              "{q.text}"
            </p>
            <footer style={{ fontSize: ".68rem", fontWeight: 800, color: "var(--pookie-muted)", opacity: 0.7, marginTop: ".3rem" }}>
              — {q.author}
            </footer>
          </motion.blockquote>
          <motion.div className="s75-hero-actions"
            initial={{ opacity: 0, y: 10 }} animate={{ opacity: 1, y: 0 }} transition={{ delay: 0.9 }}>
            <button className="btn-primary" style={{ fontSize: ".95rem", padding: ".78rem 1.85rem" }}
              onClick={() => document.getElementById("s75-dur-anchor")?.scrollIntoView({ behavior: "smooth" })}>
              <LuFlame size={14} /> Choose Duration
            </button>
          </motion.div>
        </motion.div>
        <motion.div className="s75-hero-anim-wrap"
          initial={{ opacity: 0, scale: 0.85 }} animate={{ opacity: 1, scale: 1 }}
          transition={{ duration: 0.9, delay: 0.2, type: "spring" }}>
          <div className="s75-hero-ring" aria-hidden="true" />
          <div className="s75-hero-anim">
            <Lottie animationData={workingAnim} loop style={{ width: "100%", height: "100%" }} />
          </div>
        </motion.div>
      </div>

      <div id="s75-dur-anchor">
        <DurationPicker selected={selectedDur} onSelect={onSelectDur} customDays={customDays} onCustomDays={onCustomDays} />
      </div>

      <AnimatePresence>
        {effectiveDays && (
          <motion.div className="s75-modes-section"
            initial={{ opacity: 0, y: 20 }} animate={{ opacity: 1, y: 0 }} exit={{ opacity: 0 }}>
            <div className="s75-selected-summary">
              <span className="s75-sel-pill" style={{ color: selectedDur.color }}>
                {selectedDur.emoji} {effectiveDays} days
              </span>
              <div className="s75-sel-divider" />
              <span style={{ fontSize: ".72rem", fontWeight: 700, color: "var(--pookie-muted)" }}>
                {selectedDur.label} · Now choose your challenge style below
              </span>
              <button className="s75-sel-change"
                onClick={() => document.getElementById("s75-dur-anchor")?.scrollIntoView({ behavior: "smooth" })}>
                Change ↑
              </button>
            </div>
            <div className="s75-section-label">
              <LuStar size={11} style={{ display: "inline", verticalAlign: "middle" }} /> Choose your challenge style
            </div>
            <div className="s75-mode-cards">
              {Object.values(MODES).map((m, i) => {
                const hasChal = !!existingChallenges[`${m.id}_${selectedDur.id}`];
                return (
                  <motion.button key={m.id}
                    className={`s75-mode-card ${hasChal ? "s75-card-active" : ""}`}
                    style={{ "--card-color": m.color, "--card-glow": m.glow, "--card-grad": m.grad }}
                    onClick={() => onPickModeAndDur(m.id, selectedDur, effectiveDays)}
                    initial={{ opacity: 0, y: 22 }} animate={{ opacity: 1, y: 0 }} transition={{ delay: 0.1 + i * 0.1 }}
                    whileTap={{ scale: 0.98 }}
                    aria-label={`${hasChal ? "Continue" : "Start"} ${m.label} challenge`}>
                    {hasChal && <span className="s75-card-active-badge">Active</span>}
                    <span className="s75-card-emoji">{m.emoji}</span>
                    <div>
                      <p className="s75-card-title">{m.label}</p>
                      <p className="s75-card-sub">{m.subtitle}</p>
                    </div>
                    <p className="s75-card-desc">{m.description}</p>
                    <div className="s75-card-tasks">
                      {m.tasks.slice(0, 4).map(t => (
                        <span key={t.id} className="s75-task-chip"
                          style={{ color: t.color, borderColor: `${t.color}40`, background: `${t.color}10` }}>
                          <t.Icon size={9} /> {t.label}
                        </span>
                      ))}
                      {m.tasks.length > 4 && (
                        <span className="s75-task-chip" style={{ color: "var(--pookie-muted)", borderColor: "var(--pookie-border)" }}>
                          +{m.tasks.length - 4} more
                        </span>
                      )}
                      {m.id === "custom" && (
                        <span className="s75-task-chip" style={{ color: m.color, borderColor: `${m.color}40`, background: `${m.color}10` }}>
                          ⚡ You decide
                        </span>
                      )}
                    </div>
                    <div style={{ display: "flex", alignItems: "center", gap: ".35rem", color: m.color, fontSize: ".73rem", fontWeight: 800 }}>
                      {hasChal ? "Continue" : "Start"} <LuChevronRight size={12} />
                    </div>
                  </motion.button>
                );
              })}
            </div>
          </motion.div>
        )}
      </AnimatePresence>

      <div className="s75-how">
        <div className="s75-section-label">How it works</div>
        <div className="s75-steps">
          {[
            { n: 1, title: "Pick Duration",   desc: "Choose from 7 days to 6 months. Or set a custom timeline.",           lottie: instructionAnim },
            { n: 2, title: "Daily Check-ins", desc: "Complete every task each day. Miss one? The clock resets to Day 1.",   lottie: workingAnim    },
            { n: 3, title: "Cross the line",  desc: "You'll have built habits, knowledge, and discipline that last a lifetime.", lottie: challengeAnim },
          ].map((s, i) => (
            <motion.div key={s.n} className="s75-step glass-card-sm"
              initial={{ opacity: 0, y: 18 }} animate={{ opacity: 1, y: 0 }} transition={{ delay: 0.5 + i * 0.1 }}>
              <div className="s75-step-num" aria-hidden="true">{s.n}</div>
              <div className="s75-step-anim">
                <Lottie animationData={s.lottie} loop style={{ width: "100%", height: "100%" }} />
              </div>
              <h3 className="s75-step-title">{s.title}</h3>
              <p className="s75-step-desc">{s.desc}</p>
            </motion.div>
          ))}
        </div>
      </div>
    </div>
  );
}

export default function ChallengeHard() {
  const [user,      setUser]      = useState(null);
  const [authReady, setAuthReady] = useState(false);
  const [loading,   setLoading]   = useState(false);
  const [saving,    setSaving]    = useState(false);

  const [selectedDur, setSelectedDur] = useState(() => {
    try {
      const saved = JSON.parse(localStorage.getItem("sb-challenge-dur") || "null");
      return DURATION_PRESETS.find(d => d.id === saved) || null;
    } catch { return null; }
  });
  const [customDays, setCustomDays] = useState(() => {
    try { return parseInt(localStorage.getItem("sb-challenge-custom-days") || "0") || ""; } catch { return ""; }
  });

  useEffect(() => {
    localStorage.setItem("sb-challenge-dur", JSON.stringify(selectedDur?.id || null));
  }, [selectedDur]);
  useEffect(() => {
    localStorage.setItem("sb-challenge-custom-days", customDays.toString());
  }, [customDays]);

  const [challenges,  setChallenges]  = useState({});
  const [logsMap,     setLogsMap]     = useState({});
  const [checked,     setChecked]     = useState({});
  const [customTasks, setCustomTasks] = useState([]);

  const [activeMode,  setActiveMode]  = useState(null);
  const [activeDurId, setActiveDurId] = useState(null);
  const [totalDays,   setTotalDays]   = useState(75);
  const [activeTab,   setActiveTab]   = useState("today");
  const [burst,       setBurst]       = useState(false);

  const [showRestart,      setShowRestart]      = useState(false);
  const [showGrace,        setShowGrace]        = useState(false);
  const [showStartConfirm, setShowStartConfirm] = useState(false);
  const [showCustomEd,     setShowCustomEd]     = useState(false);

  const [notifEnabled, setNotifEnabled] = useState(() => {
    try { return JSON.parse(localStorage.getItem("s75-notif-enabled") || "false"); } catch { return false; }
  });
  const [notifTime, setNotifTime] = useState(() => localStorage.getItem("s75-notif-time") || "09:00");

  useEffect(() => { localStorage.setItem("s75-notif-enabled", JSON.stringify(notifEnabled)); }, [notifEnabled]);
  useEffect(() => { localStorage.setItem("s75-notif-time", notifTime); }, [notifTime]);

  const burstTimer = useRef(null);
  useEffect(() => () => clearTimeout(burstTimer.current), []);

  useEffect(() => { AlarmScheduler.check(); }, []);

  useEffect(() => {
    const unsub = onAuthStateChanged(auth, u => { setUser(u); setAuthReady(true); });
    return unsub;
  }, []);

  useEffect(() => { if (authReady && user) loadAll(); }, [authReady, user]); // eslint-disable-line

  const activeChalKey = activeMode && activeDurId ? `${activeMode}_${activeDurId}` : null;
  const challenge     = activeChalKey ? challenges[activeChalKey] : null;
  const logs          = activeChalKey ? (logsMap[activeChalKey] || []) : [];

  const getTasksFor = useCallback((mode) => {
    return mode === "custom" ? customTasks : (MODES[mode]?.tasks || []);
  }, [customTasks]);

  const loadAll = useCallback(async () => {
    if (!user) return;
    setLoading(true);
    try {
      const modes  = ["deepWork", "academic", "custom"];
      const durIds = DURATION_PRESETS.map(d => d.id);
      const newChal = {}, newLogs = {}, newChecked = {};
      // Collect customTasks outside Promise.all to avoid concurrent-write race
      let foundCustomTasks = null;

      await Promise.all(
        modes.flatMap(mode => durIds.map(async durId => {
          try {
            const chal = await fetchChallenge(user.uid, mode, durId);
            if (!chal || chal.status === "idle") return;
            const key  = `${mode}_${durId}`;
            newChal[key]    = chal;
            const dl        = await fetchLogs(user.uid, mode, durId);
            newLogs[key]    = dl;
            const td        = chal.totalDays || 75;
            const dn        = getDayNumber(safeToDate(chal.startedAt), td);
            const tl        = dl.find(l => l.day === dn);
            newChecked[key] = tl?.tasks || {};
            // Collect but don't call setState inside concurrent promises
            if (mode === "custom" && chal.customTasks?.length) {
              foundCustomTasks = hydrateTasks(chal.customTasks);
            }
          } catch (e) { console.warn("loadAll:", mode, durId, e); }
        }))
      );

      setChallenges(newChal);
      setLogsMap(newLogs);
      setChecked(newChecked);
      // Set customTasks once, safely, after all promises resolved
      if (foundCustomTasks) setCustomTasks(foundCustomTasks);

      const active = Object.entries(newChal).find(([, v]) => v?.status === "active");
      if (active) {
        const [key, data] = active;
        // Safe split: mode can contain letters only, durId is the last segment
        const firstUnderscore = key.indexOf("_");
        const m   = key.slice(0, firstUnderscore);
        const did = key.slice(firstUnderscore + 1);
        setActiveMode(m);
        setActiveDurId(did);
        setTotalDays(data.totalDays || 75);
        const dur = DURATION_PRESETS.find(d => d.id === did);
        if (dur) setSelectedDur(dur);
      }
    } catch (err) {
      console.error("loadAll:", err);
      toast.error("Failed to load data.");
    } finally { setLoading(false); }
  }, [user]); // eslint-disable-line

  async function handleStart(mode, durPreset, days, customTasksList) {
    if (!user) return;
    const durId = durPreset.id;
    if (mode === "custom" && (!customTasksList || customTasksList.length < 2)) {
      toast.error("Add at least 2 tasks first ⚡");
      return;
    }
    setSaving(true);
    try {
      const serializedTasks = mode === "custom"
        ? customTasksList.map(({ Icon, ...rest }) => rest)
        : undefined;

      const chalRef = doc(db, "users", user.uid, CHAL_COL, chalId(user.uid, mode, durId));
      await setDoc(chalRef, {
        userId: user.uid, mode, durId, totalDays: days, status: "active",
        startedAt: serverTimestamp(),
        streakDays: 0, completedDays: 0, restartCount: 0, graceUsed: 0,
        ...(serializedTasks ? { customTasks: serializedTasks } : {}),
      });

      // Read back to get the real server timestamp
      const freshSnap = await getDoc(chalRef);
      const freshData = freshSnap.data();
      const key = `${mode}_${durId}`;

      // Set all state directly — skip loadAll() to avoid the !activeMode guard race
      setChallenges(prev => ({ ...prev, [key]: freshData }));
      setLogsMap(prev => ({ ...prev, [key]: [] }));
      setChecked(prev => ({ ...prev, [key]: {} }));
      if (mode === "custom") setCustomTasks(customTasksList);

      setActiveMode(mode);
      setActiveDurId(durId);
      setTotalDays(days);
      setActiveTab("today");
      setShowStartConfirm(false);

      toast.success(`${MODES[mode].emoji} Day 1 of ${days} begins! Let's go! 🚀`);
    } catch (err) {
      console.error("handleStart:", err);
      toast.error("Couldn't start. Try again.");
    } finally { setSaving(false); }
  }

  async function handleCheck(taskId) {
    if (!user || !challenge || !activeChalKey) return;
    const prev    = checked[activeChalKey] || {};
    const next    = { ...prev, [taskId]: !prev[taskId] };
    setChecked(c => ({ ...c, [activeChalKey]: next }));
    const tasks   = getTasksFor(activeMode);
    const allDone = tasks.every(t => next[t.id]);
    const dayNum  = getDayNumber(safeToDate(challenge.startedAt), totalDays);
    setSaving(true);
    try {
      await upsertLog(user.uid, activeMode, activeDurId, dayNum, {
        dateKey: todayKey(), tasks: next, allDone, totalTasks: tasks.length, savedAt: serverTimestamp(),
      });
      const wasAllDone = (logsMap[activeChalKey] || []).find(l => l.day === dayNum)?.allDone;
      if (allDone && !wasAllDone) {
        const ref = doc(db, "users", user.uid, CHAL_COL, chalId(user.uid, activeMode, activeDurId));
        await updateDoc(ref, { streakDays: increment(1), completedDays: increment(1) });
        const freshSnap = await getDoc(ref);
        const freshData = freshSnap.data();
        if (freshData.completedDays >= totalDays) {
          await updateDoc(ref, { status: "completed" });
          freshData.status = "completed";
        }
        setChallenges(p => ({ ...p, [activeChalKey]: freshData }));
        setBurst(true);
        burstTimer.current = setTimeout(() => setBurst(false), 3200);
        toast.success(`🌟 Day ${dayNum} DONE! Keep the streak alive!`);
      }
      const freshLogs = await fetchLogs(user.uid, activeMode, activeDurId);
      setLogsMap(p => ({ ...p, [activeChalKey]: freshLogs }));
    } catch (err) {
      console.error("handleCheck:", err);
      toast.error("Save failed — check connection.");
      setChecked(c => ({ ...c, [activeChalKey]: prev }));
      toast("Tap again to retry", { duration: 2000 });
    } finally { setSaving(false); }
  }

  async function handleRestart() {
    if (!user || !activeChalKey) return;
    setSaving(true);
    try {
      const ref  = doc(db, "users", user.uid, CHAL_COL, chalId(user.uid, activeMode, activeDurId));
      const snap = await getDoc(ref);
      const prev = snap.data() || {};
      const nd   = {
        userId: user.uid, mode: activeMode, durId: activeDurId, totalDays,
        status: "active", startedAt: serverTimestamp(),
        streakDays: 0, completedDays: 0,
        restartCount: (prev.restartCount || 0) + 1, graceUsed: 0,
      };
      if (activeMode === "custom") nd.customTasks = serializeTasks(customTasks);
      await setDoc(ref, nd);
      const old = logsMap[activeChalKey] || [];
      if (old.length > 0) {
        const batch = writeBatch(db);
        old.forEach(l => {
          if (l._id) {
            batch.update(doc(db, LOGS_COL, l._id), { archived: true });
          }
        });
        await batch.commit();
      }
      toast.success("🔄 Fresh start. Commit harder this time. 💪");
      setShowRestart(false);
      setChecked(c => ({ ...c, [activeChalKey]: {} }));
      await loadAll();
    } catch (err) {
      console.error("handleRestart:", err);
      toast.error("Restart failed.");
    } finally { setSaving(false); }
  }

  async function useGraceDay() {
    if (!user || !challenge || !activeChalKey) return;
    const used = challenge.graceUsed || 0;
    if (used >= GRACE_MAX) { toast.error("No grace days left."); return; }
    setSaving(true);
    try {
      const dayNum    = getDayNumber(safeToDate(challenge.startedAt), totalDays);
      const yesterday = dayNum - 1;
      if (yesterday >= 1) {
        const yDate = new Date();
        yDate.setDate(yDate.getDate() - 1);
        const yKey  = `${yDate.getFullYear()}-${String(yDate.getMonth() + 1).padStart(2, "0")}-${String(yDate.getDate()).padStart(2, "0")}`;
        const tasks = getTasksFor(activeMode);
        await upsertLog(user.uid, activeMode, activeDurId, yesterday, {
          dateKey: yKey,
          tasks: Object.fromEntries(tasks.map(t => [t.id, true])),
          allDone: true, totalTasks: tasks.length, usedGrace: true, savedAt: serverTimestamp(),
        });
      }
      const ref = doc(db, "users", user.uid, CHAL_COL, chalId(user.uid, activeMode, activeDurId));
      await updateDoc(ref, { graceUsed: increment(1) });
      const snap = await getDoc(ref);
      setChallenges(p => ({ ...p, [activeChalKey]: snap.data() }));
      const freshLogs = await fetchLogs(user.uid, activeMode, activeDurId);
      setLogsMap(p => ({ ...p, [activeChalKey]: freshLogs }));
      toast.success(`🌿 Grace applied. ${GRACE_MAX - used - 1} left.`);
      setShowGrace(false);
    } catch (err) {
      console.error("useGraceDay:", err);
…
.tc-prompts-toggle svg:last-child { margin-left: auto; }

.tc-prompts-list {
  display: flex;
  flex-direction: column;
  gap: 0.35rem;
  overflow: hidden;
}

.tc-prompt-item {
  display: flex;
  align-items: flex-start;
  gap: 0.6rem;
  padding: 0.65rem 0.85rem;
  background: var(--pookie-surface);
  border: 1px solid var(--pookie-border);
  border-radius: 10px;
  cursor: pointer;
  text-align: left;
  font-family: var(--pookie-font);
  font-size: 0.8rem;
  color: var(--pookie-muted);
  font-weight: 600;
  transition: all 0.18s;
  line-height: 1.5;
}

.tc-prompt-item span:first-child { font-size: 1.05rem; flex-shrink: 0; margin-top: 1px; }

.tc-prompt-item:hover {
  border-color: var(--pookie-border2);
  color: var(--pookie-text);
  background: var(--pookie-surface2);
}

.tc-letter-wrap {
  display: flex;
  flex-direction: column;
  background: rgba(168,85,247,0.04);
  border: 1px solid var(--pookie-border);
  border-radius: var(--pookie-radius-sm);
  overflow: hidden;
  transition: border-color 0.2s;
}

.tc-letter-wrap:focus-within {
  border-color: var(--pookie-purple);
  box-shadow: 0 0 0 3px rgba(168,85,247,0.12);
}

.tc-letter-header {
  display: flex;
  align-items: center;
  justify-content: space-between;
  padding: 0.75rem 1rem;
  border-bottom: 1px solid var(--pookie-border);
  background: rgba(168,85,247,0.05);
}

.tc-letter-to {
  font-family: var(--pookie-display);
  font-size: 0.95rem;
  font-style: italic;
  color: var(--pookie-pink);
  font-weight: 700;
}

.tc-letter-date {
  font-size: 0.72rem;
  color: var(--pookie-muted);
  font-weight: 600;
}

.tc-letter-body {
  width: 100%;
  padding: 1rem;
  background: transparent;
  border: none;
  outline: none;
  color: var(--pookie-text);
  font-family: var(--pookie-font);
  font-size: 0.9rem;
  font-weight: 500;
  line-height: 1.75;
  resize: none;
  box-sizing: border-box;
}

.tc-letter-body::placeholder { color: var(--pookie-muted); }

.tc-letter-footer {
  display: flex;
  align-items: center;
  justify-content: space-between;
  padding: 0.5rem 1rem;
  border-top: 1px solid var(--pookie-border);
}

.tc-char-count {
  font-size: 0.68rem;
  font-weight: 700;
  color: var(--pookie-muted);
  transition: color 0.2s;
}

.tc-min-note {
  font-size: 0.68rem;
  font-weight: 700;
  color: var(--pookie-muted);
  font-style: italic;
}

.tc-confirm-preview {
  display: flex;
  align-items: center;
  gap: 1.5rem;
  padding: 1.25rem;
  background: var(--pookie-surface);
  border: 1px solid var(--pookie-border);
  border-radius: var(--pookie-radius-sm);
}

.tc-confirm-details {
  flex: 1;
  display: flex;
  flex-direction: column;
  gap: 0.5rem;
}

.tc-confirm-row {
  display: flex;
  align-items: center;
  justify-content: space-between;
  gap: 0.75rem;
}

.tc-confirm-label {
  font-size: 0.75rem;
  font-weight: 700;
  color: var(--pookie-muted);
  text-transform: uppercase;
  letter-spacing: 0.07em;
}

.tc-confirm-val {
  font-size: 0.84rem;
  font-weight: 800;
  color: var(--pookie-text);
}

.tc-letter-snippet {
  display: flex;
  gap: 0.7rem;
  padding: 0.85rem 1rem;
  background: rgba(244,114,182,0.06);
  border: 1px solid rgba(244,114,182,0.18);
  border-radius: var(--pookie-radius-sm);
}

.tc-letter-snippet p {
  font-size: 0.85rem;
  color: var(--pookie-muted);
  font-style: italic;
  line-height: 1.6;
  margin: 0;
}

.tc-open-modal {
  background: var(--pookie-bg);
  border: 1px solid var(--pookie-border2);
  border-radius: var(--pookie-radius);
  max-width: 580px;
  width: 100%;
  box-shadow: var(--pookie-shadow-h), 0 0 80px rgba(244,114,182,0.12);
  display: flex;
  flex-direction: column;
  max-height: 90vh;
  overflow: hidden;
}

.tc-open-header {
  display: flex;
  align-items: flex-start;
  justify-content: space-between;
  gap: 1rem;
  padding: 1.5rem 1.5rem 1.1rem;
  border-bottom: 1px solid;
  flex-shrink: 0;
}

.tc-open-from {
  display: flex;
  align-items: flex-start;
  gap: 0.85rem;
}

.tc-open-icon {
  width: 44px;
  height: 44px;
  border-radius: 12px;
  border: 1px solid;
  display: flex;
  align-items: center;
  justify-content: center;
  flex-shrink: 0;
}

.tc-open-eyebrow {
  font-size: 0.72rem;
  font-weight: 800;
  text-transform: uppercase;
  letter-spacing: 0.09em;
  margin: 0;
}

.tc-open-date {
  font-size: 0.75rem;
  color: var(--pookie-muted);
  font-weight: 600;
  margin: 0.2rem 0 0;
}

.tc-open-letter {
  flex: 1;
  overflow-y: auto;
  padding: 1.5rem;
  scrollbar-width: thin;
  scrollbar-color: rgba(168,85,247,0.3) transparent;
  display: flex;
  flex-direction: column;
  gap: 1rem;
}

.tc-open-letter::-webkit-scrollbar { width: 4px; }
.tc-open-letter::-webkit-scrollbar-thumb { background: rgba(168,85,247,0.3); border-radius: 2px; }

.tc-ol-salutation {
  font-family: var(--pookie-display);
  font-size: 1.15rem;
  font-style: italic;
  color: var(--pookie-pink);
  font-weight: 700;
}

.tc-ol-body {
  font-size: 0.93rem;
  line-height: 1.85;
  color: var(--pookie-text);
  font-weight: 500;
  white-space: pre-wrap;
  flex: 1;
}

.tc-ol-sign {
  display: flex;
  flex-direction: column;
  gap: 0.25rem;
  padding-top: 1rem;
  border-top: 1px solid var(--pookie-border);
  font-family: var(--pookie-display);
}

.tc-ol-sign span:first-child {
  font-size: 0.88rem;
  font-style: italic;
  color: var(--pookie-muted);
}

.tc-ol-signed {
  font-size: 0.92rem;
  font-weight: 700;
  background: linear-gradient(135deg, var(--pookie-pink), var(--pookie-purple));
  -webkit-background-clip: text;
  -webkit-text-fill-color: transparent;
  background-clip: text;
}

.tc-open-footer {
  padding: 1rem 1.5rem;
  border-top: 1px solid var(--pookie-border);
  display: flex;
  flex-direction: column;
  gap: 0.75rem;
  flex-shrink: 0;
}

.tc-open-meta {
  display: flex;
  gap: 1rem;
  flex-wrap: wrap;
}

.tc-open-meta span {
  font-size: 0.76rem;
  font-weight: 600;
  color: var(--pookie-muted);
}

.tc-open-actions {
  display: flex;
  align-items: center;
  gap: 0.6rem;
  justify-content: flex-end;
  flex-wrap: wrap;
}

.tc-delete-confirm {
  display: flex;
  align-items: center;
  gap: 0.5rem;
  font-size: 0.8rem;
  font-weight: 700;
  color: var(--pookie-muted);
}

.tc-label {
  display: block;
  font-size: 0.75rem;
  font-weight: 800;
  text-transform: uppercase;
  letter-spacing: 0.08em;
  color: var(--pookie-muted);
  margin-bottom: 0.4rem;
}

.tc-input {
  width: 100%;
  background: rgba(168,85,247,0.06);
  border: 1px solid var(--pookie-border);
  border-radius: var(--pookie-radius-sm);
  padding: 0.65rem 1rem;
  color: var(--pookie-text);
  font-family: var(--pookie-font);
  font-size: 0.9rem;
  font-weight: 600;
  outline: none;
  transition: border-color 0.18s, box-shadow 0.18s;
  box-sizing: border-box;
}

.tc-input:focus {
  border-color: var(--pookie-purple);
  box-shadow: 0 0 0 3px rgba(168,85,247,0.14);
}

.tc-input[type="date"]::-webkit-calendar-picker-indicator {
  filter: invert(0.6) sepia(1) saturate(3) hue-rotate(220deg);
}

.tc-spin { animation: tc-spin 1s linear infinite; }

@keyframes tc-spin {
  from { transform: rotate(0deg); }
  to { transform: rotate(360deg); }
}

.tc-confetti {
  position: fixed;
  top: 0;
  left: 0;
  width: 100%;
  height: 0;
  pointer-events: none;
  z-index: 9999;
  overflow: visible;
}

.tc-confetti-piece {
  position: absolute;
  top: 0;
  font-size: 1.3rem;
  user-select: none;
  will-change: transform;
}

.btn-primary:focus-visible,
.btn-ghost:focus-visible,
.tc-btn-open:focus-visible,
.close-btn:focus-visible,
.pookie-tab:focus-visible,
.tc-challenge-btn:focus-visible {
  outline: 2px solid var(--pookie-purple);
  outline-offset: 2px;
}

@media (max-width: 640px) {
  .tc-page { padding: 74px 0.85rem 2.5rem; }
  .tc-hero { flex-direction: column; align-items: flex-start; gap: 0.85rem; }
  .tc-hero .btn-primary { width: 100%; justify-content: center; }
  .tc-stats-row { grid-template-columns: repeat(2, 1fr); }
  .tc-challenge-grid { grid-template-columns: 1fr; }
  .tc-confirm-preview { flex-direction: column; align-items: flex-start; }
  .tc-card-body { gap: 0.75rem; }
  .tc-modal-actions { flex-direction: column-reverse; }
  .tc-modal-actions > * { width: 100%; justify-content: center; }
  .tc-open-actions { flex-direction: column-reverse; align-items: stretch; }
  .tc-open-actions > * { width: 100%; justify-content: center; }
  .tc-writer-modal { padding: 1.25rem; }
  .tc-open-modal { border-radius: var(--pookie-radius-sm); }
  .tc-empty { padding: 2.5rem 1.5rem; }
}

@media (max-width: 420px) {
  .tc-stats-row { grid-template-columns: 1fr 1fr; }
  .tc-tab { font-size: 0.78rem; padding: 0.5rem 0.65rem; }
}

@media (prefers-reduced-motion: reduce) {
  *, *::before, *::after {
    animation-duration: 0.01ms !important;
    transition-duration: 0.01ms !important;
  }
}









import { useState, useEffect, useCallback, useMemo, useRef } from "react";
import { motion, AnimatePresence } from "framer-motion";
import {
  FaLock, FaUnlock, FaEnvelope, FaEnvelopeOpen,
  FaStar, FaQuoteLeft, FaChevronDown, FaChevronUp,
} from "react-icons/fa";
import {
  LuSparkles, LuCalendar, LuPenLine, LuMailOpen,
  LuLock, LuTrash2, LuCheck, LuHourglass,
  LuRefreshCw, LuX,
} from "react-icons/lu";
import { db, auth } from "../components/firebase";
import { doc, onSnapshot, setDoc, serverTimestamp } from "firebase/firestore";
import { onAuthStateChanged } from "firebase/auth";
import { toast } from "react-hot-toast";
import { Helmet } from "react-helmet-async";
import "./TimeCapsule.css";

const CHALLENGE_TYPES = [
  { value: "7day",   label: "7-Day Spark",     emoji: "⚡", days: 7,   color: "#60a5fa", desc: "A week of focused intention" },
  { value: "21day",  label: "21-Day Habit",     emoji: "🌱", days: 21,  color: "#34d399", desc: "Build a lasting habit" },
  { value: "30day",  label: "30-Day Challenge", emoji: "🔥", days: 30,  color: "#fb923c", desc: "One month of growth" },
  { value: "75hard", label: "75 Hard",          emoji: "💪", days: 75,  color: "#a855f7", desc: "The ultimate discipline test" },
  { value: "100day", label: "100-Day Journey",  emoji: "🚀", days: 100, color: "#f472b6", desc: "Long-haul transformation" },
  { value: "custom", label: "Custom Date",      emoji: "📅", days: null, color: "#fbbf24", desc: "Choose your own delivery date" },
];

const PROMPT_TEMPLATES = [
  { emoji: "🌟", text: "Dear future me, I hope you've become the person you're working so hard to be right now…" },
  { emoji: "💪", text: "Hey you — did you actually do it? I'm writing this because I believe you can…" },
  { emoji: "🧠", text: "Right now I'm struggling with [subject]. By the time you read this, I hope you've mastered it…" },
  { emoji: "🎯", text: "My biggest goal right now is [goal]. Future me, please tell me you didn't give up…" },
  { emoji: "💌", text: "I want you to remember this moment — the uncertainty, the effort, the growth…" },
  { emoji: "🔥", text: "You started this challenge because [reason]. Don't forget why you began…" },
];

function generateId() {
  return `${Date.now()}_${Math.random().toString(36).slice(2, 9)}`;
}

function formatDate(iso) {
  if (!iso) return "";
  try {
    return new Date(iso).toLocaleDateString("en-US", {
      year: "numeric", month: "long", day: "numeric",
    });
  } catch { return ""; }
}

function formatCountdown(deliverAt) {
  const now    = Date.now();
  const target = new Date(deliverAt).getTime();
  const diff   = target - now;
  if (diff <= 0) return null;
  const days    = Math.floor(diff / (1000 * 60 * 60 * 24));
  const hours   = Math.floor((diff % (1000 * 60 * 60 * 24)) / (1000 * 60 * 60));
  const minutes = Math.floor((diff % (1000 * 60 * 60)) / (1000 * 60));
  if (days > 0)  return { label: `${days}d ${hours}h remaining` };
  if (hours > 0) return { label: `${hours}h ${minutes}m remaining` };
  return { label: `${minutes}m remaining — almost time!` };
}

function isDelivered(capsule) {
  return new Date(capsule.deliverAt).getTime() <= Date.now();
}

// ── Confetti ──────────────────────────────────────────────────────────────────
function Confetti({ active }) {
  if (!active) return null;
  const pieces = Array.from({ length: 30 }, (_, i) => ({
    id: i,
    emoji: ["💌", "✨", "💜", "💖", "⭐", "🎉", "🌟", "💫", "📬"][i % 9],
    x: Math.random() * 100,
    delay: Math.random() * 0.7,
    dur: 1.2 + Math.random() * 1.1,
    rot: Math.random() > 0.5 ? 360 : -360,
  }));
  return (
    <div className="tc-confetti" aria-hidden="true">
      {pieces.map((p) => (
        <motion.span
          key={p.id}
          className="tc-confetti-piece"
          style={{ left: `${p.x}%` }}
          initial={{ y: -20, opacity: 1, scale: 1.2 }}
          animate={{ y: "110vh", opacity: 0, rotate: p.rot, scale: 0.4 }}
          transition={{ delay: p.delay, duration: p.dur, ease: "easeIn" }}
        >
          {p.emoji}
        </motion.span>
      ))}
    </div>
  );
}

// ── Countdown ring ────────────────────────────────────────────────────────────
function CountdownRing({ deliverAt, totalDays, size = 72, stroke = 7 }) {
  const now     = Date.now();
  const target  = new Date(deliverAt).getTime();
  const created = target - totalDays * 24 * 60 * 60 * 1000;
  const elapsed = now - created;
  const total   = target - created;
  const pct     = Math.min(100, Math.max(0, Math.round((elapsed / total) * 100)));
  const r       = (size - stroke) / 2;
  const circ    = 2 * Math.PI * r;
  const remaining = Math.max(0, Math.ceil((target - now) / (1000 * 60 * 60 * 24)));

  return (
    <svg width={size} height={size} style={{ flexShrink: 0 }} role="img" aria-label={`${remaining} days remaining`}>
      <defs>
        <linearGradient id="tcRingGrad" x1="0%" y1="0%" x2="100%" y2="100%">
          <stop offset="0%" stopColor="#a855f7" stopOpacity="0.8" />
          <stop offset="100%" stopColor="#f472b6" />
        </linearGradient>
      </defs>
      <circle cx={size / 2} cy={size / 2} r={r} fill="none"
        stroke="rgba(168,85,247,0.10)" strokeWidth={stroke} />
      <motion.circle
        cx={size / 2} cy={size / 2} r={r}
        fill="none" stroke="url(#tcRingGrad)" strokeWidth={stroke}
        strokeLinecap="round"
        transform={`rotate(-90 ${size / 2} ${size / 2})`}
        initial={{ strokeDasharray: `0 ${circ}` }}
        animate={{ strokeDasharray: `${(circ * pct) / 100} ${circ}` }}
        transition={{ duration: 1.2, ease: "easeOut" }}
      />
      <text x={size / 2} y={size / 2} textAnchor="middle" fill="#f8fafc"
        style={{ fontSize: size * 0.22, fontWeight: 900, fontFamily: "Nunito, sans-serif" }}>
        {remaining}
      </text>
      <text x={size / 2} y={size / 2 + size * 0.2} textAnchor="middle" fill="#94a3b8"
        style={{ fontSize: size * 0.14, fontFamily: "Nunito, sans-serif", fontWeight: 700 }}>
        days
      </text>
    </svg>
  );
}

// ── Sealed envelope ───────────────────────────────────────────────────────────
function SealedEnvelope({ challengeType }) {
  const type = CHALLENGE_TYPES.find((c) => c.value === challengeType) || CHALLENGE_TYPES[2];
  return (
    <div className="tc-envelope" aria-hidden="true">
      <motion.div
        className="tc-env-body"
        style={{ borderColor: `${type.color}44` }}
        animate={{ y: [0, -3, 0] }}
        transition={{ repeat: Infinity, duration: 3, ease: "easeInOut" }}
      >
        <div className="tc-env-flap" style={{ background: `linear-gradient(135deg, ${type.color}22, ${type.color}44)` }} />
        <div className="tc-env-seal" style={{ background: type.color }}>
          <span>{type.emoji}</span>
        </div>
        <div className="tc-env-lines">
          <span /><span /><span />
        </div>
      </motion.div>
      <div className="tc-env-shadow" />
    </div>
  );
}

// ── Writer modal ──────────────────────────────────────────────────────────────
function WriterModal({ onSave, onClose }) {
  const [step, setStep]             = useState(1);
  const [challengeType, setChType]  = useState("30day");
  const [customDate, setCustomDate] = useState("");
  const [content, setContent]       = useState("");
  const [charCount, setCharCount]   = useState(0);
  const [saving, setSaving]         = useState(false);
  const [showPrompts, setPrompts]   = useState(false);
  const textareaRef                 = useRef(null);

  const selectedChallenge = CHALLENGE_TYPES.find((c) => c.value === challengeType);

  const deliverAt = useMemo(() => {
    if (challengeType === "custom") {
      return customDate ? new Date(customDate).toISOString() : null;
    }
    const d = new Date();
    d.setDate(d.getDate() + selectedChallenge.days);
    return d.toISOString();
  }, [challengeType, customDate, selectedChallenge]);

  const totalDays = useMemo(() => {
    if (challengeType === "custom" && customDate) {
      return Math.max(1, Math.ceil((new Date(customDate) - Date.now()) / (1000 * 60 * 60 * 24)));
    }
    return selectedChallenge?.days || 30;
  }, [challengeType, customDate, selectedChallenge]);

  function handlePrompt(text) {
    setContent((prev) => prev ? prev + "\n\n" + text : text);
    setCharCount((prev) => prev + (prev ? 2 + text.length : text.length));
    setPrompts(false);
    textareaRef.current?.focus();
  }

  function handleContentChange(e) {
    setContent(e.target.value);
    setCharCount(e.target.value.length);
  }

  async function handleSave() {
    setSaving(true);
    await onSave({ challengeType, content: content.trim(), deliverAt, totalDays });
    setSaving(false);
  }

  const canProceedStep1 = challengeType !== "custom" || (customDate && new Date(customDate) > new Date());
  const canProceedStep2 = content.trim().length >= 20;

  return (
    <motion.div
      className="pookie-overlay"
      initial={{ opacity: 0 }} animate={{ opacity: 1 }} exit={{ opacity: 0 }}
      onClick={onClose}
      role="dialog" aria-modal="true" aria-label="Write a time capsule letter"
    >
      <motion.div
        className="tc-writer-modal"
        initial={{ scale: 0.88, opacity: 0, y: 32 }}
        animate={{ scale: 1, opacity: 1, y: 0 }}
        exit={{ scale: 0.88, opacity: 0, y: 20 }}
        transition={{ type: "spring", stiffness: 290, damping: 26 }}
        onClick={(e) => e.stopPropagation()}
      >
        {/* Step indicator */}
        <div className="tc-steps" aria-label="Step indicator">
          {["Choose challenge", "Write letter", "Seal & send"].map((s, i) => (
            <div key={i} className={`tc-step${step > i + 1 ? " done" : step === i + 1 ? " active" : ""}`}>
              <div className="tc-step-dot">
                {step > i + 1 ? <LuCheck size={10} /> : i + 1}
              </div>
              <span className="tc-step-label">{s}</span>
            </div>
          ))}
        </div>

        <AnimatePresence mode="wait">

          {/* ── Step 1 ── */}
          {step === 1 && (
            <motion.div
              key="step1"
              className="tc-step-panel"
              initial={{ opacity: 0, x: 20 }}
              animate={{ opacity: 1, x: 0 }}
              exit={{ opacity: 0, x: -20 }}
            >
              <div className="tc-modal-header">
                <h2 className="modal-title">When should future you read this?</h2>
                <p className="modal-sub">Pick a challenge to set your delivery date ✨</p>
              </div>

              <div className="tc-challenge-grid">
                {CHALLENGE_TYPES.map((c) => (
                  <motion.button
                    key={c.value}
                    className={`tc-challenge-btn${challengeType === c.value ? " active" : ""}`}
                    style={challengeType === c.value
                      ? { borderColor: c.color, background: `${c.color}18`, boxShadow: `0 0 0 1px ${c.color}40` }
                      : {}}
                    onClick={() => setChType(c.value)}
                    whileHover={{ scale: 1.02 }}
                    whileTap={{ scale: 0.97 }}
                    aria-pressed={challengeType === c.value}
                  >
                    <span className="tc-ch-emoji">{c.emoji}</span>
                    <div className="tc-ch-info">
                      <span className="tc-ch-name" style={challengeType === c.value ? { color: c.color } : {}}>
                        {c.label}
                      </span>
                      <span className="tc-ch-desc">{c.desc}</span>
                    </div>
                    {c.days && (
                      <span className="tc-ch-days" style={{ color: c.color }}>{c.days}d</span>
                    )}
                  </motion.button>
                ))}
              </div>

              {challengeType === "custom" && (
                <motion.div
                  className="tc-custom-date"
                  initial={{ opacity: 0, height: 0 }}
                  animate={{ opacity: 1, height: "auto" }}
                >
                  <label className="field-label">Delivery date</label>
                  <input
                    type="date"
                    className="field-input"
                    value={customDate}
                    onChange={(e) => setCustomDate(e.target.value)}
                    min={new Date(Date.now() + 86400000).toISOString().split("T")[0]}
                    aria-label="Custom delivery date"
                  />
                </motion.div>
              )}

              {deliverAt && (
                <div className="tc-delivery-preview">
                  <LuCalendar size={14} color="var(--pookie-purple)" />
                  <span>Letter will be unlocked on <strong>{formatDate(deliverAt)}</strong></span>
                </div>
              )}

              <div className="modal-actions">
                <button className="btn-ghost" onClick={onClose}>Cancel</button>
                <motion.button
                  className="btn-primary"
                  onClick={() => setStep(2)}
                  disabled={!canProceedStep1}
                  whileTap={{ scale: 0.96 }}
                >
                  Write letter <span>→</span>
                </motion.button>
              </div>
            </motion.div>
          )}

          {/* ── Step 2 ── */}
          {step === 2 && (
            <motion.div
              key="step2"
              className="tc-step-panel"
              initial={{ opacity: 0, x: 20 }}
              animate={{ opacity: 1, x: 0 }}
              exit={{ opacity: 0, x: -20 }}
            >
              <div className="tc-modal-header">
                <h2 className="modal-title">Write to future you 💌</h2>
                <p className="modal-sub">Be honest, be hopeful, be real. Future you is listening.</p>
              </div>

              <button
                className="tc-prompts-toggle"
                onClick={() => setPrompts((v) => !v)}
                aria-expanded={showPrompts}
              >
                <LuSparkles size={13} />
                Need inspiration? Try a prompt
                {showPrompts ? <FaChevronUp size={10} /> : <FaChevronDown size={10} />}
              </button>

              <AnimatePresence>
                {showPrompts && (
                  <motion.div
                    className="tc-prompts-list"
                    initial={{ height: 0, opacity: 0 }}
                    animate={{ height: "auto", opacity: 1 }}
                    exit={{ height: 0, opacity: 0 }}
                  >
                    {PROMPT_TEMPLATES.map((p, i) => (
                      <button key={i} className="tc-prompt-item" onClick={() => handlePrompt(p.text)}>
                        <span>{p.emoji}</span>
                        <span>{p.text}</span>
                      </button>
                    ))}
                  </motion.div>
                )}
              </AnimatePresence>

              <div className="tc-letter-wrap">
                <div className="tc-letter-header">
                  <span className="tc-letter-to">Dear Future Me,</span>
                  <span className="tc-letter-date">
                    {new Date().toLocaleDateString("en-US", { month: "long", day: "numeric", year: "numeric" })}
                  </span>
                </div>
                <textarea
                  ref={textareaRef}
                  className="tc-letter-body"
                  placeholder="Start writing… what do you want future you to know? What are you feeling right now? What do you hope for?"
                  value={content}
                  onChange={handleContentChange}
                  maxLength={5000}
                  rows={10}
                  aria-label="Letter content"
                />
                <div className="tc-letter-footer">
                  <span className="tc-char-count" style={{ color: charCount > 4500 ? "#fb7185" : "var(--pookie-muted)" }}>
                    {charCount}/5000
                  </span>
                  {charCount < 20 && (
                    <span className="tc-min-note">Write at least 20 characters to continue</span>
                  )}
                </div>
              </div>

              <div className="modal-actions">
                <button className="btn-ghost" onClick={() => setStep(1)}>← Back</button>
                <motion.button
                  className="btn-primary"
                  onClick={() => setStep(3)}
                  disabled={!canProceedStep2}
                  whileTap={{ scale: 0.96 }}
                >
                  Preview & seal <span>→</span>
                </motion.button>
              </div>
            </motion.div>
          )}

          {/* ── Step 3 ── */}
          {step === 3 && (
            <motion.div
              key="step3"
              className="tc-step-panel"
              initial={{ opacity: 0, x: 20 }}
              animate={{ opacity: 1, x: 0 }}
              exit={{ opacity: 0, x: -20 }}
            >
              <div className="tc-modal-header">
                <h2 className="modal-title">Ready to seal the capsule? 🔒</h2>
                <p className="modal-sub">Once sealed, you can't edit it — only open it on delivery day.</p>
              </div>

              <div className="tc-confirm-preview glass-card-sm">
                <SealedEnvelope challengeType={challengeType} />
                <div className="tc-confirm-details">
                  <div className="tc-confirm-row">
                    <span className="tc-confirm-label">Challenge</span>
                    <span className="tc-confirm-val">
                      {selectedChallenge?.emoji} {selectedChallenge?.label}
                    </span>
                  </div>
                  <div className="tc-confirm-row">
                    <span className="tc-confirm-label">Unlocks on</span>
                    <span className="tc-confirm-val" style={{ color: "var(--pookie-pink)" }}>
                      {formatDate(deliverAt)}
                    </span>
                  </div>
                  <div className="tc-confirm-row">
                    <span className="tc-confirm-label">Days sealed</span>
                    <span className="tc-confirm-val" style={{ color: "var(--pookie-purple)" }}>
                      {totalDays} days
                    </span>
                  </div>
                  <div className="tc-confirm-row">
                    <span className="tc-confirm-label">Length</span>
                    <span className="tc-confirm-val">{charCount} characters</span>
                  </div>
                </div>
              </div>

              <div className="tc-letter-snippet">
                <FaQuoteLeft size={14} color="var(--pookie-purple)" style={{ flexShrink: 0, marginTop: 2 }} />
                <p>{content.slice(0, 160)}{content.length > 160 ? "…" : ""}</p>
              </div>

              <div className="modal-actions">
                <button className="btn-ghost" onClick={() => setStep(2)}>← Edit letter</button>
                <motion.button
                  className="btn-primary tc-btn-seal"
                  onClick={handleSave}
                  disabled={saving}
                  whileHover={{ scale: 1.03 }}
                  whileTap={{ scale: 0.96 }}
                >
                  {saving ? (
                    <><LuRefreshCw size={13} className="pookie-spin" /> Sealing…</>
                  ) : (
                    <><LuLock size={13} /> Seal the capsule 💌</>
                  )}
                </motion.button>
              </div>
            </motion.div>
          )}

        </AnimatePresence>
      </motion.div>
    </motion.div>
  );
}

// ── Open letter modal ─────────────────────────────────────────────────────────
function OpenLetterModal({ capsule, onClose, onDelete }) {
  const challenge = CHALLENGE_TYPES.find((c) => c.value === capsule.challengeType) || CHALLENGE_TYPES[2];
  const [showDelete, setShowDelete] = useState(false);

  return (
    <motion.div
      className="pookie-overlay"
      initial={{ opacity: 0 }} animate={{ opacity: 1 }} exit={{ opacity: 0 }}
      onClick={onClose}
      role="dialog" aria-modal="true" aria-label="Read time capsule letter"
    >
      <motion.div
        className="tc-open-modal"
        initial={{ scale: 0.88, opacity: 0, y: 32 }}
        animate={{ scale: 1, opacity: 1, y: 0 }}
        exit={{ scale: 0.88, opacity: 0 }}
        transition={{ type: "spring", stiffness: 280, damping: 26 }}
        onClick={(e) => e.stopPropagation()}
      >
        <div className="tc-open-header" style={{ borderBottomColor: `${challenge.color}33` }}>
          <div className="tc-open-from">
            <div className="tc-open-icon" style={{ background: `${challenge.color}20`, borderColor: `${challenge.color}44` }}>
              <FaEnvelopeOpen size={20} color={challenge.color} />
            </div>
            <div>
              <p className="tc-open-eyebrow" style={{ color: challenge.color }}>
                {challenge.emoji} {challenge.label} — Letter from your past self
              </p>
              <p className="tc-open-date">Written on {formatDate(capsule.createdAt)}</p>
            </div>
          </div>
          <button className="close-btn" onClick={onClose} aria-label="Close">
            <LuX size={14} />
          </button>
        </div>

        <div className="tc-open-letter">
          <div className="tc-ol-salutation">Dear Future Me,</div>
          <div className="tc-ol-body">{capsule.content}</div>
          <div className="tc-ol-sign">
            <span>With love & hope,</span>
            <span className="tc-ol-signed">Past You · {formatDate(capsule.createdAt)}</span>
          </div>
        </div>

        <div className="tc-open-footer">
          <div className="tc-open-meta">
            <span>📬 Delivered on {formatDate(capsule.openedAt || new Date().toISOString())}</span>
            <span>⏳ Sealed for {capsule.totalDays} days</span>
          </div>
          <div className="tc-open-actions">
            {!showDelete ? (
              <button className="btn-ghost tc-btn-ghost--danger" onClick={() => setShowDelete(true)}>
                <LuTrash2 size={13} /> Archive
              </button>
            ) : (
              <div className="tc-delete-confirm">
                <span>Delete forever?</span>
                <button className="btn-ghost" onClick={() => setShowDelete(false)}>No</button>
                <button className="btn-danger" onClick={() => { onDelete(capsule.id); onClose(); }}>
                  Yes, delete
                </button>
              </div>
            )}
            <button className="btn-primary" onClick={onClose}>
              <LuCheck size={13} /> Close letter
            </button>
          </div>
        </div>
      </motion.div>
    </motion.div>
  );
}

// ── Capsule card ──────────────────────────────────────────────────────────────
function CapsuleCard({ capsule, onOpen, onDelete }) {
  const challenge = CHALLENGE_TYPES.find((c) => c.value === capsule.challengeType) || CHALLENGE_TYPES[2];
  const delivered = isDelivered(capsule);
  const countdown = !delivered ? formatCountdown(capsule.deliverAt) : null;
  const [hover, setHover] = useState(false);

  return (
    <motion.div
      className={`tc-capsule-card${delivered ? " delivered" : " locked"}`}
      style={{
        borderColor: delivered ? `${challenge.color}55` : `${challenge.color}28`,
        boxShadow: hover && delivered ? `0 0 0 1px ${challenge.color}40, var(--pookie-shadow-h)` : undefined,
      }}
      layout
      initial={{ opacity: 0, y: 18, scale: 0.97 }}
      animate={{ opacity: 1, y: 0, scale: 1 }}
      exit={{ opacity: 0, scale: 0.94 }}
      transition={{ type: "spring", stiffness: 280, damping: 26 }}
      onMouseEnter={() => setHover(true)}
      onMouseLeave={() => setHover(false)}
    >
      {delivered && hover && (
        <motion.div
          className="tc-card-glow"
          style={{ background: `radial-gradient(ellipse at center, ${challenge.color}18, transparent 70%)` }}
          initial={{ opacity: 0 }} animate={{ opacity: 1 }}
        />
      )}

      <div
        className="pookie-badge"
        style={delivered
          ? { background: `${challenge.color}20`, color: challenge.color }
          : { background: "rgba(148,163,184,0.1)", color: "var(--pookie-muted)" }
        }
      >
        {delivered ? <><FaUnlock size={11} /> Delivered</> : <><LuLock size={11} /> Sealed</>}
      </div>

      <div className="tc-card-body">
        <div className="tc-card-visual">
          {delivered ? (
            <motion.div
              className="tc-delivered-icon"
              style={{ background: `${challenge.color}18`, borderColor: `${challenge.color}44` }}
              animate={hover ? { scale: [1, 1.08, 1] } : {}}
              transition={{ duration: 0.5 }}
            >
              <FaEnvelopeOpen size={26} color={challenge.color} />
            </motion.div>
          ) : (
            <CountdownRing
              deliverAt={capsule.deliverAt}
              totalDays={capsule.totalDays}
              size={72}
              stroke={7}
            />
          )}
        </div>

        <div className="tc-card-info">
          <div className="tc-card-challenge" style={{ color: challenge.color }}>
            {challenge.emoji} {challenge.label}
          </div>
          <p className="tc-card-written">Written {formatDate(capsule.createdAt)}</p>

          {delivered ? (
            <p className="tc-card-unlocked">📬 Unlocked {formatDate(capsule.deliverAt)}</p>
          ) : countdown ? (
            <p className="tc-card-countdown">
              <LuHourglass size={12} /> {countdown.label}
            </p>
          ) : null}

          {delivered && capsule.content && (
            <p className="tc-card-snippet">
              "{capsule.content.slice(0, 80)}{capsule.content.length > 80 ? "…" : ""}"
            </p>
          )}

          {!delivered && (
            <p className="tc-card-locked-hint">
              🔒 You'll be able to read this on {formatDate(capsule.deliverAt)}
            </p>
          )}
        </div>
      </div>

      <div className="tc-card-actions">
        {delivered ? (
          <motion.button
            className="tc-btn-open"
            style={{ background: `linear-gradient(135deg, ${challenge.color}cc, ${challenge.color})` }}
            onClick={() => onOpen(capsule)}
            whileHover={{ scale: 1.03 }}
            whileTap={{ scale: 0.97 }}
          >
            <FaEnvelopeOpen size={13} /> Open Letter
          </motion.button>
        ) : (
          <button className="tc-btn-sealed" disabled aria-label="Letter is sealed until delivery date">
            <LuLock size={12} /> Sealed until {formatDate(capsule.deliverAt)}
          </button>
        )}

        {delivered && (
          <button
            className="tc-btn-icon-danger"
            onClick={() => onDelete(capsule.id)}
            title="Delete capsule"
            aria-label="Delete capsule"
          >
            <LuTrash2 size={13} />
          </button>
        )}
      </div>
    </motion.div>
  );
}

// ── Main ──────────────────────────────────────────────────────────────────────
export default function TimeCapsule() {
  const [user, setUser]           = useState(null);
  const [loading, setLoading]     = useState(true);
  const [capsules, setCapsules]   = useState([]);
  const [showWriter, setWriter]   = useState(false);
  const [openCapsule, setOpenCap] = useState(null);
  const [confetti, setConfetti]   = useState(false);
  const [tab, setTab]             = useState("all");
  const saveRef                   = useRef(null);

  useEffect(() => {
    const unsub = onAuthStateChanged(auth, (u) => {
      setUser(u);
      if (!u) setLoading(false);
    });
    return unsub;
  }, []);

  useEffect(() => {
    if (!user) return;
    setLoading(true);
    const ref = doc(db,  "timeCapsules", user.uid);
    const unsub = onSnapshot(ref, (snap) => {
      setCapsules(snap.exists() ? snap.data().capsules || [] : []);
      setLoading(false);
    }, (err) => {
      console.error("TimeCapsule snapshot error:", err);
      toast.error("Couldn't load your capsules 💔");
      setLoading(false);
    });
    return unsub;
  }, [user]);

  useEffect(() => {
    if (!capsules.length) return;
    const nowDelivered = capsules.filter((c) => isDelivered(c) && !c.openedAt && !c.notifiedDelivery);
    if (nowDelivered.length > 0) {
      setConfetti(true);
      setTimeout(() => setConfetti(false), 4000);
      toast.success(
        `📬 ${nowDelivered.length === 1 ? "A letter" : `${nowDelivered.length} letters`} from past you ${nowDelivered.length === 1 ? "has" : "have"} arrived!`,
        { duration: 5000 }
      );
      const updated = capsules.map((c) =>
        nowDelivered.find((d) => d.id === c.id) ? { ...c, notifiedDelivery: true } : c
      );
      persist(updated);
    }
  }, [capsules.length]);

  const persist = useCallback(async (updated) => {
    if (!user) return;
    if (saveRef.current) clearTimeout(saveRef.current);
    saveRef.current = setTimeout(async () => {
      try {
        await setDoc(
          doc(db, "timeCapsules", user.uid),
          { userId: user.uid, capsules: updated, updatedAt: serverTimestamp() },
          { merge: true }
        );
      } catch (err) {
        console.error("Persist error:", err);
        toast.error("Autosave failed — check your connection 😓");
      }
    }, 600);
  }, [user]);

  async function handleSaveCapsule(data) {
    const newCapsule = {
      id: generateId(),
      ...data,
      delivered: false,
      openedAt: null,
      notifiedDelivery: false,
      createdAt: new Date().toISOString(),
    };
    const updated = [...capsules, newCapsule];
    setCapsules(updated);
    setWriter(false);
    await persist(updated);
    setConfetti(true);
    setTimeout(() => setConfetti(false), 3500);
    toast.success("💌 Capsule sealed! Future you will thank you.", { duration: 4000 });
  }

  async function handleOpenCapsule(capsule) {
    setOpenCap(capsule);
    if (!capsule.openedAt) {
      const updated = capsules.map((c) =>
        c.id === capsule.id ? { ...c, openedAt: new Date().toISOString(), delivered: true } : c
      );
      setCapsules(updated);
      await persist(updated);
    }
  }

  async function handleDeleteCapsule(id) {
    const updated = capsules.filter((c) => c.id !== id);
    setCapsules(updated);
    await persist(updated);
    toast.success("Capsule archived");
  }

  const filteredCapsules = useMemo(() => {
    const sorted = [...capsules].sort((a, b) => new Date(b.createdAt) - new Date(a.createdAt));
    if (tab === "sealed")    return sorted.filter((c) => !isDelivered(c));
    if (tab === "delivered") return sorted.filter((c) => isDelivered(c));
    return sorted;
  }, [capsules, tab]);

  const stats = useMemo(() => ({
    total:     capsules.length,
    sealed:    capsules.filter((c) => !isDelivered(c)).length,
    delivered: capsules.filter((c) => isDelivered(c)).length,
    opened:    capsules.filter((c) => c.openedAt).length,
  }), [capsules]);

  if (!user && !loading) {
    return (
      <div className="tc-page">
        <Helmet>
          <title>Time Capsule | StudyBuddy</title>
          <meta name="description" content="Write letters to your future self. Seal them for 7, 21, 30, 75, or 100 days. Open them when your challenge is done and watch yourself grow." />
          <meta property="og:title" content="Time Capsule | StudyBuddy" />
          <meta property="og:description" content="Letters from past you, delivered to future you." />
          <meta property="og:type" content="website" />
          <meta property="og:url" content="https://study-buddy-seven-blush.vercel.app/time-capsule" />
          <meta property="og:image" content="https://study-buddy-seven-blush.vercel.app/og-image.png" />
          <meta name="twitter:card" content="summary_large_image" />
          <meta name="twitter:image" content="https://study-buddy-seven-blush.vercel.app/og-image.png" />
          <link rel="canonical" href="https://study-buddy-seven-blush.vercel.app/time-capsule" />
        </Helmet>     
        <div className="pookie-auth-gate">
          <div className="tc-gate-icon">💌</div>
          <h2>Letters to your future self</h2>
          <p>Seal a letter today. Open it when your challenge is done. Watch yourself grow. 🌱</p>
          <a href="/login" className="btn-primary">Log in to start</a>
        </div>
      </div>
    );
  }

  if (loading) {
    return (
      <div className="pookie-loading">
        <motion.div
          animate={{ scale: [1, 1.2, 1], rotate: [0, 10, -10, 0] }}
          transition={{ repeat: Infinity, duration: 2 }}
          style={{ fontSize: "3.5rem" }}
        >
          💌
        </motion.div>
        <p>Opening the vault…</p>
      </div>
    );
  }

  return (
    <div className="tc-page">
      <Helmet>
        <title>Time Capsule | StudyBuddy</title>
        <meta name="description" content="Write letters to your future self. Seal them for 7, 21, 30, 75, or 100 days. Open them when your challenge is done and watch yourself grow." />
        
        <meta property="og:title" content="Time Capsule | StudyBuddy" />
        <meta property="og:description" content="Letters from past you, delivered to future you. The most powerful kind of self-reflection." />
        <meta property="og:type" content="website" />
        <meta property="og:url" content="https://study-buddy-seven-blush.vercel.app/time-capsule" />
        <meta property="og:image" content="https://study-buddy-seven-blush.vercel.app/og-image.png" />
        
        <meta name="twitter:card" content="summary_large_image" />
        <meta name="twitter:image" content="https://study-buddy-seven-blush.vercel.app/og-image.png" />
        
        <link rel="canonical" href="https://study-buddy-seven-blush.vercel.app/time-capsule" />
      </Helmet>


      <Confetti active={confetti} />

      {/* Hero */}
      <motion.div
        className="tc-hero glass-card"
        initial={{ opacity: 0, y: -24 }}
        animate={{ opacity: 1, y: 0 }}
        transition={{ type: "spring", stiffness: 250, damping: 24 }}
      >
        <div className="tc-hero-left">
          <div className="tc-hero-icon">
            <motion.span
              animate={{ rotate: [0, 5, -5, 0], y: [0, -3, 0] }}
              transition={{ repeat: Infinity, duration: 4, ease: "easeInOut" }}
              style={{ fontSize: "1.8rem", display: "block" }}
            >
              💌
            </motion.span>
          </div>
          <div>
            <h1 className="tc-title">Time Capsule</h1>
            <p className="tc-subtitle">Letters from past you, delivered to future you 🕰️</p>
          </div>
        </div>
        <motion.button
          className="btn-primary tc-btn-write"
          onClick={() => setWriter(true)}
          whileHover={{ scale: 1.04 }}
          whileTap={{ scale: 0.96 }}
        >
          <LuPenLine size={14} /> Write a Letter
        </motion.button>
      </motion.div>

      {/* Stats */}
      <motion.div
        className="tc-stats-row"
        initial={{ opacity: 0 }} animate={{ opacity: 1 }} transition={{ delay: 0.1 }}
      >
        {[
          { val: stats.total,     label: "Letters",   color: "var(--pookie-purple)", icon: <FaEnvelope size={15} /> },
          { val: stats.sealed,    label: "Sealed",    color: "var(--pookie-pink)",   icon: <LuLock size={15} /> },
          { val: stats.delivered, label: "Delivered", color: "#34d399",              icon: <LuMailOpen size={15} /> },
          { val: stats.opened,    label: "Opened",    color: "#fbbf24",              icon: <FaStar size={15} /> },
        ].map((s, i) => (
          <motion.div
            key={i}
            className="pookie-stat-card"
            initial={{ opacity: 0, y: 14 }}
            animate={{ opacity: 1, y: 0 }}
            transition={{ delay: 0.1 + i * 0.07 }}
            whileHover={{ scale: 1.04, borderColor: s.color }}
          >
            <span style={{ color: s.color }}>{s.icon}</span>
            <span className="pookie-stat-val" style={{ color: s.color }}>{s.val}</span>
            <span className="pookie-stat-label">{s.label}</span>
          </motion.div>
        ))}
      </motion.div>

      {/*Tabs*/}
      <div className="tc-tabs pookie-tabs" role="tablist">
        {[
          { id: "all",       label: "All",       emoji: "📬", count: stats.total },
          { id: "sealed",    label: "Sealed",    emoji: "🔒", count: stats.sealed },
          { id: "delivered", label: "Delivered", emoji: "💌", count: stats.delivered },
        ].map((t) => (
          <button
            key={t.id}
            className={`pookie-tab${tab === t.id ? " active" : ""}`}
            onClick={() => setTab(t.id)}
            role="tab"
            aria-selected={tab === t.id}
          >
            {t.emoji} {t.label}
            {t.count > 0 && (
              <span className={`tc-tab-badge${tab === t.id ? " active" : ""}`}>{t.count}</span>
            )}
          </button>
        ))}
      </div>

      {/* Content */}
      <AnimatePresence mode="wait">
        {filteredCapsules.length === 0 ? (
          <motion.div
            key="empty"
            className="tc-empty glass-card"
            initial={{ opacity: 0 }}
            animate={{ opacity: 1 }}
            transition={{ delay: 0.1 }}
          >
            {capsules.length === 0 ? (
              <>
                <div className="tc-empty-visual">
                  <SealedEnvelope challengeType="30day" />
                </div>
                <h3 className="pookie-display-title" style={{ fontSize: "1.5rem" }}>No letters yet, bestie</h3>
                <p>
                  Write your first letter to future you. Seal it with hope, open it with pride.
                  This is the most powerful kind of self-reflection. 💜
                </p>
                <motion.button
                  className="btn-primary"
                  onClick={() => setWriter(true)}
                  whileHover={{ scale: 1.04 }} whileTap={{ scale: 0.96 }}
                >
                  <LuPenLine size={14} /> Write your first letter
                </motion.button>
              </>
            ) : tab === "sealed" ? (
              <>
                <div className="tc-empty-icon">🔓</div>
                <h3 className="pookie-display-title" style={{ fontSize: "1.5rem" }}>No sealed capsules</h3>
                <p>All your capsules have been delivered! Write a new one to start fresh.</p>
                <button className="btn-primary" onClick={() => setWriter(true)}>
                  <LuPenLine size={14} /> Write a new letter
                </button>
              </>
            ) : (
              <>
                <div className="tc-empty-icon">📭</div>
                <h3 className="pookie-display-title" style={{ fontSize: "1.5rem" }}>No delivered capsules yet</h3>
                <p>Your sealed letters will appear here when their delivery date arrives.</p>
                <button className="btn-ghost" onClick={() => setTab("sealed")}>
                  View sealed letters →
                </button>
              </>
            )}
          </motion.div>
        ) : (
          <motion.div
            key="list"
            className="tc-capsules-list"
            initial={{ opacity: 0 }}
            animate={{ opacity: 1 }}
          >
            {tab !== "sealed" && stats.delivered > 0 && filteredCapsules.some(isDelivered) && (
              <motion.div
                className="tc-delivered-banner"
                initial={{ opacity: 0, y: -8 }}
                animate={{ opacity: 1, y: 0 }}
              >
                <span>📬</span>
                <span>
                  {stats.delivered} letter{stats.delivered !== 1 ? "s" : ""} from past you {stats.delivered === 1 ? "is" : "are"} waiting — open {stats.delivered === 1 ? "it" : "them"} when you're ready 💜
                </span>
              </motion.div>
            )}

            <AnimatePresence>
              {filteredCapsules.map((capsule) => (
                <CapsuleCard
                  key={capsule.id}
                  capsule={capsule}
                  onOpen={handleOpenCapsule}
                  onDelete={handleDeleteCapsule}
                />
              ))}
            </AnimatePresence>
          </motion.div>
        )}
      </AnimatePresence>

      {/* Modals */}
      <AnimatePresence>
        {showWriter && (
          <WriterModal onSave={handleSaveCapsule} onClose={() => setWriter(false)} />
        )}
        {openCapsule && (
          <OpenLetterModal
            capsule={openCapsule}
            onClose={() => setOpenCap(null)}
            onDelete={(id) => { handleDeleteCapsule(id); setOpenCap(null); }}
          />
        )}
      </AnimatePresence>
    </div>
  );
}





































































































































